saved_models/7R/bilinear/2D/map_net.pth (torch, 4247 bytes, 6 tensors)

map_net_in.weight f4 [20, 3]
00000000: 1854 da3e 24c9 a93e 1d6f 293f f5d5 0ebf
00000010: 989b d3be 84bf 2abe 9d4f 993e 4d82 5e3e
00000020: 7446 42be 2ff4 3b3f 6c24 143e b5bd efbc
00000030: c8e6 a63e 7886 b23d e4c0 e2be b715 bdbe
00000040: a3f3 93be 395e 2cbe cc25 e7be 1c6e c6be
00000050: cf80 9e3e 56cf 1abf abf7 dc3d d33f 7a3d
00000060: 9ab3 57be b9d5 c7be 3630 12bf e9aa 07bf
00000070: 39f4 24bf d089 c43d e9ae 71be d4d9 a63e
00000080: 661f 803e f523 a6bd 904c acbe a58f 013f
00000090: c194 b3bd af8b 213e e449 ca3e b226 ffbe
000000a0: 6802 553e 5e39 2abe 7cba 09bf 9eb1 15bf
000000b0: f363 27bf bf19 a1be 2b42 a43e 187e 5cbe
000000c0: b3e9 253e 6cac 113e 3fa2 77be 3e0f cabe
000000d0: 0a85 bbbe d9be 01bf e855 f63e 3aef a03e
000000e0: b465 fa3e 80bb 1fbf 01f3 38bf 17b9 a9bb
0.42642283 0.3316127 0.6618517 -0.5579522 -0.41329646 -0.1667462 0.29943553 0.21729393
-0.18972188 0.7341947 0.14467019 -0.029265264 0.32597947 0.08717054 -0.4428779 -0.3693063
-0.28896818 -0.16832818 -0.45146024 -0.38755882 0.30957648 -0.6047262 0.107894264 0.061096024
-0.21064606 -0.39030245 -0.57104814 -0.52995163 -0.64435154 0.09596598 -0.23601879 0.32588065
0.25023955 -0.08112327 -0.33652163 0.5060981 -0.08768607 0.15775941 0.395095 -0.4983421
0.20801699 -0.16623446 -0.5380018 -0.5847415 -0.65386885 -0.31464955 0.32081732 -0.21532476
0.1620243 0.1422593 -0.24182986 -0.39464754 -0.36624938 -0.50681835 0.48112416 0.31432515
0.48905718 -0.6239548 -0.72245795 -0.005179535

map_net_in.bias f4 [20]
00000000: 9ec2 71bf 31a7 a13f 002c 933f 963a 81bf
00000010: 1dfd febe 7a34 963e 6039 36bf a3fb 29bf
00000020: abdd b13f dec5 2f3f 9a5b e4bd 8b74 3a3f
00000030: b0cf d03e 7798 9bbe 02d6 0b3e 7a89 3c3f
00000040: 393a 213f b2d5 c4bf cb23 0f3f fa85 b3be
-0.9443759 1.2629148 1.1497803 -1.0096004 -0.49802485 0.2933691 -0.711813 -0.6639959
1.3895773 0.68661296 -0.11150284 0.7283408 0.40783453 -0.3038976 0.13655856 0.7364727
0.62979466 -1.5377715 0.5591399 -0.35063154

map_net_hid.0.weight f4 [20, 20]
00000000: d448 cf3e 5747 d53d fdaf 89be b941 b4bd
00000010: d644 d33e 4721 85bd 8854 04bd a273 573e
00000020: 0a1d 1abf cc1f aabe d1da dabd 299b 3fbe
00000030: f32c 223f f593 9abe e327 24be 730e 7c3d
00000040: 4788 cfbd ac3b 8ebe bbfb b93d a528 b0be
00000050: c11b 39bb f727 14bf 94de 323f 315d 903e
00000060: 82cc c7be 044a b8be 9c3b 633e 4624 1b3e
00000070: 793e 603e f583 23be c523 a83d 283e 77be
00000080: 5637 fe3e 78ef 183d 7443 d13e f064 e5ba
00000090: ffc3 d83e df91 6dbf 135a d63d 079a 2dbd
000000a0: a06b 963e 4cdf 5dbe 080d 013f 4bd6 ebbd
000000b0: 6de4 4b3f 4afe a1be 57fc 813e 0946 e3bd
000000c0: 701d 853e 1257 3f3e 50be 87bd c918 e8be
000000d0: 1fdc 4e3e 97d4 f33a a8b4 863d 0901 1d3f
000000e0: 9523 223f 9ca0 5dbf b784 ce3e bc1c 7e3e
000000f0: 92ab d13c d02c 60be a0ec 363e aca7 11be
00000100: f0b9 873e d07f 26be ec52 e8bd cf14 a1bd
00000110: 1d8a 44be b7a5 473e 691d 12bf 6831 3dbd
00000120: fb41 8abe 1c1c 6d3e d768 6e3e 9a1f 033f
00000130: 2209 5b3e 76af d93b abf6 843e c851 3c3d
00000140: cb2d 9bbe 6baa 883e 90b0 fbbd 4b85 ae3e
00000150: 0427 38be 240e c63d c3a6 6d3e db4b 4fbd
00000160: 9003 463e db97 3ebe e94a f8be ebf6 e33e
00000170: 9fd5 ddbe 8022 b53e 220d 80be b953 f53c
00000180: 91c9 0fbe f84f 603e ee7d 37be d7fc 2fbe
00000190: c14d e53c 0ff8 95be 23f8 203d e53d d0be
000001a0: 6474 bfbd a3f0 cd3d ca60 16be 425d 8bbd
000001b0: 695e 28bd 74a8 9f3d 4012 adbe 14c2 803d
000001c0: e1f4 463e 985a 253d 8ad2 ee3e 6ba3 253e
000001d0: 7384 393d 8c13 f4bd f33e ed3d 61d0 8b3d
000001e0: 7795 613e 15f1 19bf 69a7 dc3c 31d0 04bd
000001f0: 1a8b dd3d 8918 e5bd 14bb 2f3e 912f 8f3e
00000200: 3854 5bbe 95a9 c33e 15f1 43be 91ac 093e
00000210: e170 9b3e 6d60 99be ee1a b73e d0a1 a2be
00000220: 1703 07be b949 c2bd 804c 423e 0728 f43d
00000230: 35b2 73be 451d 023d 921a 82bd 8f74 b63d
00000240: f49d 9abd 0b0d 953e 6d28 073e eef8 80be
00000250: 70aa c6be 5d8e 2a3c 61d6 9d3e 96cc 38be
00000260: 5679 923e dfab b6bd e958 a6bd f05c 4f3e
00000270: f7ba 85be e9f4 8f3e 608b 80bd 73e8 e6be
00000280: e3b4 7e3e e66f 38bd 462e 0ebe f1e3 fb3d
00000290: a82d 4cbe 4615 113e a09c ba3e db4f f0bd
000002a0: 6745 f23e ffcf bebe 43b8 afbe cb3f a23e
000002b0: cc78 e8be 17a5 10bd 509b 30be 01be 33be
000002c0: 1149 253e 8c30 67be 6c7f 25be b942 0fbe
000002d0: 6d9d d93d a7dd 3abe 5f7b 6ebe 5783 f9bd
000002e0: 2d3c 8e3e ad0d 4ebe d092 c53d 029c 523f
000002f0: f295 513e c080 46be 7eba 10bf a74b 8d3d
00000300: 3744 55be 955c 123e 2d28 e63d 6287 44be
00000310: dae2 cf3d 5642 84be d39d c23e fe43 b03e
00000320: dc63 09be ac5b 323e 0f69 d83e 4ba2 e3bd
00000330: 2bc1 d23e 92f6 03be 317a cfbe 3524 05bf
00000340: f492 dd3d 1b02 30bd c526 80be 074e bd3e
00000350: 746e 4e3e 9bb3 2bbe f8c0 db3d ebcb be3d
00000360: 2530 f1bc 64ac 7cbe 0c25 bb3e 5598 36bd
00000370: c560 5a3e f1de fbbe f9b2 873e f286 6f3e
00000380: cd2a 71be 14e6 b2be db3d d13e 7bae d63e
00000390: efb8 cdbe d999 313e 1463 973e 9523 a9be
000003a0: 662f c93e fe4e 483e ae62 563e 6a87 aabd
000003b0: cf2c 3a3e 62b9 14bf 713b 243e 073c 073d
000003c0: 6918 abbd c1db 8a3e 802c 2dbf cf6a 153d
000003d0: fa83 d5bc bf5b 763e 9dda 443e 5310 c23d
000003e0: 56b1 48bd c75d b8bd 7189 3ebd f4d8 10be
000003f0: c089 7bbe 3835 06be 1dc7 053e c0e7 9bbd
0.4048525 0.104139976 -0.2689208 -0.08801598 0.41263455 -0.06500488 -0.032307178 0.21040204
-0.6020056 -0.33227384 -0.10686267 -0.18711533 0.6334984 -0.30191007 -0.1603084 0.061537217
-0.10133415 -0.277799 0.09081217 -0.3440601 -0.0028245302 -0.5787348 0.6987088 0.281961
-0.39023215 -0.3599397 0.22190708 0.15150556 0.21898831 -0.15968306 0.082099475 -0.24144804
0.49651593 0.03733775 0.40871775 -0.0017501395 0.42337033 -0.92800707 0.10466399 -0.04238322
0.29378986 -0.21667212 0.5041051 -0.115154825 0.79645425 -0.3163932 0.25387833 -0.110973425
0.25999022 0.18685558 -0.06628096 -0.4533141 0.20201157 0.0018602785 0.06577426 0.61329705
0.63335544 -0.86573195 0.40335628 0.24815649 0.025594506 -0.21892095 0.17863703 -0.14224118
0.26509047 -0.16259694 -0.11343941 -0.07865297 -0.19193311 0.19496809 -0.57076126 -0.046189696
-0.27003464 0.23155254 0.2328218 0.51220095 0.21390203 0.006643231 0.25969443 0.04597643
-0.30308375 0.2669252 -0.12289536 0.3408607 -0.17983633 0.09670666 0.23208146 -0.05060945
0.19337296 -0.18612616 -0.48494652 0.4452432 -0.43327042 0.35377884 -0.2501002 0.029947149
-0.14041735 0.21905506 -0.17919132 -0.17186294 0.027991178 -0.29290816 0.03929914 -0.40672222
-0.093483716 0.100556634 -0.1468536 -0.06804897 -0.04110566 0.07795802 -0.33802986 0.062870175
0.19429351 0.0403696 0.46645004 0.1617562 0.04529233 -0.11917791 0.11584272 0.068268545
0.22029673 -0.60133487 0.026935296 -0.03242511 0.10817547 -0.1118632 0.17161208 0.27965978
-0.21418846 0.38215318 -0.19134934 0.13444735 0.30359557 -0.2995638 0.35762733 -0.31764078
-0.13184772 -0.09486718 0.18974495 0.11921697 -0.2379845 0.031766195 -0.06352724 0.089089505
-0.075496584 0.29111513 0.13199015 -0.25189918 -0.38801908 0.010409919 0.3082762 -0.18046793
0.28608197 -0.089195006 -0.08122427 0.20250297 -0.26119205 0.2811654 -0.06276584 -0.4509922
0.2487369 -0.04502859 -0.1388484 0.12299336 -0.19939291 0.14168271 0.3644762 -0.11733981
0.47318575 -0.37268063 -0.34320268 0.31689295 -0.4540466 -0.035313692 -0.17246747 -0.1755295
0.16141154 -0.22577113 -0.16161889 -0.13990296 0.1062573 -0.18248616 -0.2328925 -0.12183254
0.27780285 -0.20122404 0.09647143 0.822693 0.20467356 -0.19385052 -0.56534564 0.06899195
-0.20826803 0.1429313 0.11238132 -0.1919227 0.101506904 -0.2583186 0.38011035 0.34426874
-0.13417 0.17417783 0.42267653 -0.11114939 0.41163 -0.12887028 -0.40522912 -0.5200837
0.10819045 -0.042970758 -0.2502958 0.36973593 0.20159322 -0.16767733 0.10730165 0.09316238
-0.029441902 -0.24675137 0.36551702 -0.04457887 0.21325977 -0.49193528 0.26503733 0.23391321
-0.23551483 -0.3494116 0.40867504 0.41929993 -0.40180156 0.17343844 0.29567778 -0.3303496
0.39293975 0.19561383 0.20936081 -0.083266094 0.18181156 -0.5809537 0.160383 0.03301623
-0.08354265 0.27120784 -0.67646027 0.036478814 -0.026063908 0.24058436 0.1922402 0.0947577
-0.048997246 -0.090022616 -0.046517793 -0.14145261 -0.24564266 -0.13106239 0.13064237 -0.07612562

map_net_hid.0.bias f4 [20]
00000000: a36f 61be 40dc 723e 3eb8 873e 9df9 7c3d
00000010: 003c 8cbc 7280 323c ae6a 003e dfc8 c0bc
00000020: ab68 1ebd 8c3d 93be cd85 f43c 9a58 7a3d
00000030: bf85 a4bd 3852 10be 3960 2dbd d279 ffbc
00000040: e44a a5be f2bf 253e 744e b1be 4e23 e13e
-0.22015242 0.23716831 0.26507753 0.061761487 -0.017118454 0.010894882 0.12540695 -0.023533283
-0.038674038 -0.28757894 0.029848957 0.061119653 -0.080333225 -0.14093864 -0.042328093 -0.031186018
-0.322837 0.16186503 -0.34630167 0.43972248

map_net_out.weight f4 [2, 20]
00000000: 99c2 05bf 2d93 87be f960 4fbf c9b8 bb3e
00000010: 6b70 63be 0f75 c03e ebfd fe3e f621 ab3e
00000020: ac21 2ebf ea41 2abf cd79 733e 178b 19be
00000030: ee4b 18bf 0acf 5ebf adfa a73e 9de2 913e
00000040: 107a 96bc ce75 c03e cc5a 003f de61 2d3f
00000050: dfeb e93d e634 0abf 20d0 cabe 1778 b9be
00000060: 5b12 8d3e be91 e4be 802b 98be aba5 403f
00000070: 262a 81be eb20 25bf 5b2d edbe 45ae 07bf
00000080: c769 7d3e e40d a33e 0217 de3e 8ec1 173f
00000090: df7c 343f ae40 41be 8b1e 0dbf 3c63 c73e
-0.5225006 -0.26479474 -0.81007344 0.36664417 -0.22210853 0.3758931 0.498031 0.33424348
-0.6802013 -0.66506827 0.23776932 -0.14994465 -0.5949086 -0.87034667 0.32808438 0.28493205
-0.01836875 0.37589878 0.50138545 0.6772746 0.11421942 -0.53986967 -0.39611912 -0.36224434
0.27553067 -0.44642442 -0.29720688 0.7525279 -0.2522747 -0.64503354 -0.46323666 -0.5300029
0.24747382 0.31846535 0.4337693 0.59279716 0.7050304 -0.1887233 -0.5512473 0.38942897

map_net_out.bias f4 [2]
00000000: c103 b2bc 3925 3cbd
-0.021730306 -0.045933936
