saved_models/Kuka/2D/map_net.pth (torch, 4631 bytes, 6 tensors)

map_net_in.weight f4 [20, 7]
00000000: 2f27 0440 a688 1f3f 24d5 67bc 8bd1 13bf
00000010: 1038 49be ec72 f23e 1804 263f 8f53 c03f
00000020: 820a 323e c10b f03b 6f5e 2c3f 0a1e 7bbf
00000030: ce83 cf3c 2ace 95c0 c11e 1d3e 721b 94bf
00000040: a55e b1bd af01 e13e f0d9 013e 6cef 4cbc
00000050: 77d7 963e e94f 2dbf 5fc3 3e3f a8c0 a4be
00000060: 48c8 22bf e72b b53d 2621 323f 9745 c7be
00000070: 65ae 66bf 3bd4 1a3f d790 a1be 661c 26bf
00000080: 146a 1cbd 9228 313f c93a 17bf 1e80 ad3e
00000090: 601d 39bf 5f7d 4ebd 4570 5c3f bcfb 723d
000000a0: 1125 5abb 4c80 053c 6772 9940 232e d73d
000000b0: f766 e43f 255e 343e 52f8 9f3f a8ab b43c
000000c0: f882 df40 619a 3bc1 9622 45be 1432 9ec0
000000d0: f1ca 8b3e 2338 98c0 f9e3 e5bd c177 27c1
000000e0: 2b25 b6be 5d00 7b3f b67b cc3e 1d62 6dbf
000000f0: 2e93 313d fa88 5ebc 69c7 fb3d adee a2bf
00000100: 6980 06bf ba32 3ebf 7e94 163f 1c76 09be
00000110: 7840 08bf 7514 8ebe ad80 04bf dcf7 013f
00000120: b768 debe 4e30 aabe 5177 3bbd c07e d63e
00000130: 02ce fcbe bcdf 413f d42f 143f 237e c5be
00000140: 9097 0dbf 1539 fe3d 9d71 0c3f 39b7 3a3e
00000150: 2236 8cbf 45f3 0c3f a6b8 d33e a33b 0bbf
00000160: e72f 00be 67a4 113f 5922 5dbe b94c 9dbf
00000170: 96f6 2fbf e804 75be cbcd 5b3f c23a babd
00000180: 25cc 8bbb 065c 32bf 0def 82bf 6e9e 3b3f
00000190: 60cb 70be 872e 2a3e f8dd 693c 5ca1 98bb
000001a0: 37b5 003f 08f6 c9c0 9470 fdbe 226e e7be
000001b0: e235 cabe c3b2 d73e 1d0c a9bc 0fa1 d4bf
000001c0: c6a4 5bbe 32d5 f43e 6c98 2abf 98fa fdbe
000001d0: 3056 23be 551c ec3e f64a 293e f278 ca3f
000001e0: 360e 633f bd00 78bc 779a ba3e 6e78 523e
000001f0: d007 ab3b b880 d3bf f474 5bbf 72fe 143e
00000200: 16e1 223e 512b 5fbe a35b c73d e6ff 8b3e
00000210: 9f34 20bf 9c46 6ac0 2c5e 99bf f1e8 d6bf
00000220: a3d7 393f 4cc2 9a3e ae69 5abd ba1d 2a40
2.0648916 0.62317884 -0.014149938 -0.5774161 -0.19650292 0.47353303 0.64849997 1.50255
0.17386821 0.00732562 0.67331594 -0.9809271 0.025331404 -4.6814165 0.15343763 -1.1570876
-0.0866063 0.43946597 0.12680793 -0.0125082545 0.29461262 -0.6770006 0.7451686 -0.32178235
-0.63586855 0.08846264 0.6958183 -0.3892028 -0.90109855 0.6048009 -0.31555817 -0.6488708
-0.0381871 0.6920253 -0.59074074 0.33886808 -0.7231045 -0.050412532 0.8610881 0.059322104
-0.0033286253 0.008148264 4.795215 0.10506847 1.7843922 0.17614038 1.2497656 0.022054508
6.9847374 -11.72519 -0.19251475 -4.943613 0.2730327 -4.7568526 -0.11225123 -10.466737
-0.35575232 0.9804743 0.39938134 -0.92727834 0.043353252 -0.013582462 0.12293894 -1.2729088
-0.5253969 -0.7429615 0.5882033 -0.13423961 -0.5322337 -0.27749982 -0.51758844 0.5076883
-0.43439266 -0.3323998 -0.045768086 0.41893578 -0.4937592 0.75732017 0.5788548 -0.38572797
-0.5530939 0.12413231 0.5486086 0.18233956 -1.095402 0.550587 0.41351813 -0.54387873
-0.12518273 0.56891483 -0.21595134 -1.2289039 -0.68735635 -0.23927653 0.8586089 -0.090932384
-0.0042662793 -0.69671667 -1.0229203 0.7328862 -0.23515081 0.16619311 0.014274113 -0.0046579074
0.5027651 -6.311283 -0.49499953 -0.45201212 -0.39494234 0.42128572 -0.020635659 -1.6611651
-0.21449575 0.47818905 -0.6663883 -0.4960525 -0.15950847 0.46115366 0.16532502 1.581816
0.8869356 -0.015136895 0.36445972 0.20553753 0.005219437 -1.6523657 -0.8572533 0.14550188
0.15906176 -0.21793868 0.09734275 0.27343673 -0.62580293 -3.6605597 -1.1981864 -1.6789838
0.7259466 0.30226362 -0.05332344 2.6580644

map_net_in.bias f4 [20]
00000000: 225a 6440 f626 eebe 391a babf 482d e5c0
00000010: 586d e940 08ca c23f 73f9 ac3e d9a7 3ebe
00000020: b070 8b3d 9807 ccbf 0ea2 89c0 4919 47c0
00000030: a5e6 c9be 802b 5bbf 8c31 953f 75ba 8fbf
00000040: fad7 86bf d4d9 533e 9f76 2a40 9bab 1140
3.5680013 -0.465141 -1.4539253 -7.1617775 7.2945976 1.5217905 0.33784065 -0.18618716
0.06808603 -1.5939817 -4.301032 -3.1109183 -0.3943378 -0.8561325 1.1655746 -1.1228777
-1.0534661 0.20688564 2.66349 2.276099

map_net_hid.0.weight f4 [20, 20]
00000000: 710e 023e daa9 dd3d 91ff c33e c1c2 85bf
00000010: 0fed 34bc e0f0 dabd 4d21 abbe 1b23 8bbd
00000020: 7dbb 8a3d d63b 803f d697 943f 4fed 963f
00000030: 5f45 c9bf 0c37 82be f226 d03c 1505 c9be
00000040: 625b be3e 58fe adbe 4ab4 38be dc4f 893e
00000050: af15 12bd d2c8 873d 9b71 ad3e 0557 14bd
00000060: d6a6 17bd 26bb 2fbf fa0f 813d e255 22be
00000070: ace7 f03d b362 dfbc 0804 343e 921f 053e
00000080: 5785 67bc 397c 863f bdde a7bf 845b 233f
00000090: 49d5 e8bb ccc4 e8be 8b23 9bbe 7de9 f23d
000000a0: 34cf 79be b8ec 1f3f 336c 17bd 6be2 e93e
000000b0: d15c d8be aca4 833f 8666 b13e bf8b 4e3d
000000c0: 121b c2bd 7764 22be a2a7 01bf 89ff 3bbd
000000d0: a1fc a3bd 6368 ff3e e9c3 053e e6d3 653e
000000e0: c9a3 9f3d 5297 873e 01a5 673f edfb d43d
000000f0: 1ca6 c2bc 7618 c6bd 154c 13bf 7b02 21bf
00000100: 2747 a4be 4b88 923f 59e4 66be da5c 753e
00000110: 06da 113e d8a5 033f 2050 443f a06b 4fbc
00000120: 15f8 ba3c b633 c6bd 842a 383f 6245 1abf
00000130: d79f 67be 1653 aabf e301 723f 5544 a6be
00000140: 3011 3d3e 8318 0b3d 03ff bf3d 4e96 4c3d
00000150: 7af7 f5be 32a9 1240 31fb 2a3e cc3a 003e
00000160: 0b05 e03e eeee 24be 8a20 2e3e febc 60be
00000170: e4aa 393e a179 51be e651 f73e 5d31 8b3e
00000180: 397a 643d fff4 82be 949f bd3e a847 c23e
00000190: 06e1 e0bb e815 553d a356 d6be e7fa aabf
000001a0: 7594 e73f cbf7 a03b 6c17 7dbd fb2c c6bd
000001b0: a708 f1be 1b0a 1cbd 539d ba3e 3255 a13e
000001c0: 823e b33e bb10 3bbf e7ff b1be 4202 bdbd
000001d0: a232 003e 7716 743d a982 6fbf cf0c 6c3e
000001e0: 4ca1 16bf 76d1 42bf 8a5a b63f 2e98 80be
000001f0: 1477 1a3c b3a7 5fbf 5805 fdbf 2abc 0abf
00000200: a5be 9cbe 5e4f 563e e682 743e 1758 d3be
00000210: 9710 563e 4bf2 983e 41f3 923f d690 9cbf
00000220: 6766 25bd ed1e b53e eac7 043f 0be2 43be
00000230: a5fa 29bf 884c 923d 1cfd 853e 953e fbbe
00000240: 90cc 47bf 59bf 3e3e d713 f23e 1932 1e3e
00000250: 6deb b7bd 83e6 4abe c641 8cbe 2738 fe3e
00000260: 013b c33e 17ea 9dbe bf22 043f 47fb 783f
00000270: 56f5 93bc e091 b93e d715 673d c60b 99be
00000280: 839a 96be b411 a73d 762d 7e3f 04f8 b53d
00000290: 4e0b 0f3f 0934 22bf 8237 a33e 3010 c03e
000002a0: 4415 843f 32ec bbbd 19db 19be 48bf ae3e
000002b0: adc8 073e 57a3 6b3f 05a8 263f 305c 39bd
000002c0: b3e8 1bbd 30e7 103f f4a2 99be 9ca3 303f
000002d0: 54c1 023e 960c d9be d2d1 063e d482 7e3e
000002e0: f58c d53e cacb fe3e 795c 21bf 2fe6 b6be
000002f0: a3c9 66bf 65a3 663d 3a62 47be b2c6 bdbe
00000300: d881 babe 9c0b c53d ef9d ba3e 052e d63e
00000310: 2609 673e adfc 3f3e 6e17 46bf d136 a0be
00000320: 59c2 913e 11e5 743e a00d 203e 6c8a f63e
00000330: e5f4 843e 11c3 973c 8b26 bf3e dd99 a03e
00000340: ba3b b4be a6e4 ccbe 9b0e 24bf 9f53 bbbe
00000350: 8878 76be b203 3d3f 1b4d c43f 47ab 4c3f
00000360: 604e c73e b4e4 3abe 77dc 91bf 12d4 ed3e
00000370: 0c55 693e b64b 12be 94a9 803b 675b eebd
00000380: 685f 51bf 738e 6ebe a757 dcbc cd75 203d
00000390: 5e3c 05be 56ac 8c3e e4f8 02bf 8266 8b3e
000003a0: 7a81 48be ad4f e0be 97af d03e da9c c7bc
000003b0: 7bf9 60be 65b5 d63e 1405 9a3e 1295 093f
000003c0: 70b0 b2bd 4378 583f be06 b3bf 2bbe ba3d
000003d0: bf62 38be bb2c 493f 5519 003f 99fa d93c
000003e0: 5b0b 763c ef31 133e 89d3 f6be 22fc 973e
000003f0: 9770 533d c034 8a3d a859 10be 8f27 903f
0.12700821 0.10823412 0.3828092 -1.0450059 -0.011042847 -0.106904745 -0.33423844 -0.06793805
0.06774042 1.001826 1.1608837 1.1791171 -1.5724295 -0.25432622 0.025409196 -0.3926169
0.37179095 -0.3398311 -0.18037525 0.2681874 -0.03566521 0.066301 0.33875737 -0.0362158
-0.03702434 -0.6864494 0.063018754 -0.15853074 0.11762938 -0.027268743 0.17579663 0.13000324
-0.014130912 1.050666 -1.3114849 0.63811517 -0.0071055037 -0.45462644 -0.30300555 0.118609406
-0.24395448 0.6247058 -0.03696842 0.45680556 -0.42258313 1.0284629 0.34648532 0.05042624
-0.094778195 -0.15858637 -0.5064641 -0.045897994 -0.080071695 0.49884328 0.13063015 0.22444114
0.077949114 0.26482636 0.9048615 0.103996135 -0.023760848 -0.09672634 -0.57537967 -0.6289441
-0.32085535 1.1447843 -0.22548045 0.23961201 0.14243326 0.5142493 0.7668476 -0.012659937
0.022823373 -0.09677832 0.71939874 -0.6026212 -0.22619568 -1.3306606 0.9453413 -0.32474008
0.18463588 0.033958923 0.093748115 0.04994803 -0.48040372 2.2915769 0.16697384 0.12522429
0.43753847 -0.1610677 0.170046 -0.21947095 0.18131596 -0.20456554 0.4830467 0.271861
0.055780623 -0.25577542 0.3703581 0.37945294 -0.0068627624 0.052022845 -0.41862974 -1.3357819
1.809218 0.0049123517 -0.061789915 -0.09676548 -0.47076914 -0.038095575 0.36448154 0.3151031
0.35008627 -0.73072404 -0.3476555 -0.09228946 0.12519315 0.059591737 -0.93558747 0.23051761
-0.5883987 -0.7610086 1.424638 -0.25116104 0.0094278045 -0.87365264 -1.9767256 -0.54193366
-0.306142 0.20928714 0.23878059 -0.41278145 0.20904766 0.29872355 1.1480485 -1.22317
-0.04038086 0.35375157 0.51867545 -0.19129197 -0.6639808 0.071435034 0.2616967 -0.49071184
-0.7804651 0.18627681 0.47280762 0.15448798 -0.08980451 -0.19814496 -0.2739393 0.49652216
0.38130954 -0.3084266 0.5161552 0.9725842 -0.018061321 0.36244106 0.056417312 -0.29891795
-0.29414758 0.081576735 0.9928812 0.08885196 0.55876625 -0.6336065 0.31878287 0.3751235
1.031899 -0.0917591 -0.15024985 0.3413031 0.13260145 0.9204611 0.6510013 -0.045253932
-0.038063716 0.56602764 -0.30007136 0.6899965 0.12769061 -0.42392415 0.13165978 0.24854594
0.41709104 0.49764854 -0.6303173 -0.3572249 -0.90151423 0.05630817 -0.19471064 -0.37065655
-0.36427188 0.09621355 0.3644862 0.41831985 0.22562084 0.18748732 -0.773795 -0.31291822
0.28468588 0.23915507 0.15630198 0.48152483 0.2596809 0.018525632 0.37334093 0.31367388
-0.35201818 -0.40018195 -0.64084786 -0.36587235 -0.24069417 0.73833764 1.5336031 0.7994885
0.38926983 -0.18251306 -1.1395406 0.4645086 0.22786349 -0.14286694 0.0039264653 -0.11638527
-0.81786203 -0.23296528 -0.026897265 0.039174844 -0.1301131 0.27475232 -0.51161027 0.27226645
-0.19580641 -0.43810788 0.40758964 -0.024366785 -0.21970169 0.41935268 0.30082 0.5374309
-0.08725059 0.84558505 -1.3986433 0.09118303 -0.18006419 0.7858388 0.50038654 0.026608752
0.015017356 0.14374517 -0.48208264 0.2968455 0.051621046 0.067483425 -0.14096701 1.1262072

map_net_hid.0.bias f4 [20]
00000000: 1555 233f b6ac 43bf 019c e23e 2e46 66be
00000010: 2de4 113f c8da 443f 0e53 0dbe 4b39 203f
00000020: 6772 a6bd 29a9 d13e 8882 363f 4983 d3bd
00000030: bcc6 293f 9de6 053f 2ae9 f33e ab62 f43e
00000040: df89 fdbd f3ea b8be a269 923f 6b41 443f
0.638017 -0.7643541 0.44259647 -0.22487709 0.56988794 0.76896334 -0.13801214 0.6258742
-0.08127289 0.4094937 0.71292925 -0.10327775 0.6631887 0.5230501 0.47638828 0.47731528
-0.123798124 -0.36116752 1.1438487 0.7666232

map_net_out.weight f4 [3, 20]
00000000: 61e3 0dbe 5ad9 c83e 569e 40bd 33a0 503e
00000010: 0d88 473e 0885 0f3f 0012 b9bc 48be 913e
00000020: d4a6 c73e c564 6dbe e91d 86be e5b2 9b3e
00000030: 9f2f d53d ad9f 00be ff16 1dbf 1016 8cbe
00000040: 5d48 46be 6dbf 1bbe e59b 43be 32f6 a7be
00000050: 6102 793c 7fd9 13bd f8ad 243c 814f 4bbe
00000060: ce1a 663c 22b7 2c3c 97f1 0f3d 2470 45bb
00000070: 7be1 17bd 9abd 8bbd aae3 d63a edad 73bc
00000080: 5cff 5a3d 7909 a33d 766f 15bd c8fd 343c
00000090: 5609 2abd c5cd 5bbe 9144 1a3d ebdc 843c
000000a0: 099d b7be 3fc5 1dbe 12e7 a13e 8097 0e3d
000000b0: ed8b 403d f4d1 64be d667 98bd 2582 28bd
000000c0: 990d 22be 22b0 73bd b9e2 82bd 5912 083f
000000d0: a2d5 283e de83 91be 678e ecbe 815b 593e
000000e0: 8bf9 6abe 8182 e2bd e116 083e 762f 503e
-0.1385627 0.39228326 -0.047026 0.20373611 0.19485493 0.56062365 -0.02259159 0.28465486
0.38994467 -0.23182972 -0.26194695 0.30409923 0.10409474 -0.12560911 -0.61363214 -0.27360582
-0.19363542 -0.15209742 -0.19102438 -0.3280502 0.015198321 -0.036096092 0.010051243 -0.19854547
0.014044477 0.010541709 0.035142507 -0.0030126655 -0.03708027 -0.06823273 0.0016394753 -0.01487301
0.053466186 0.07960791 -0.03648325 0.011046834 -0.04151281 -0.21465214 0.037663046 0.016218623
-0.35861996 -0.15407275 0.31621605 0.03481245 0.047008444 -0.22345716 -0.0744168 -0.04113974
-0.158255 -0.059494145 -0.063909 0.53152996 0.16487744 -0.2842092 -0.46202394 0.21226312
-0.22946756 -0.11060048 0.13289978 0.20330605

map_net_out.bias f4 [3]
00000000: fe90 f9bd 3bca d0bd 5489 d73e
-0.12185858 -0.101948224 0.4209696
