saved_models/Kuka/2D/map_net_time_delay.pth (torch, 4783 bytes, 6 tensors)

map_net_in.weight f4 [20, 7]
000000 da ef 25 3e 69 f4 1f bf ad 0e e5 be 50 4a 13 3f
       0.16204777 -0.62482315 -0.4473776 0.57535267
000010 39 bc d8 3c a8 24 1e bf 98 5c 4f be 8a da 44 bf
       0.026456939 -0.61774683 -0.20250165 -0.76895964
000020 06 2d 09 bf 2c 63 40 bf a1 32 43 3f fe 02 b7 be
       -0.53584325 -0.75151324 0.7624913 -0.3574447
000030 24 05 7f bb 26 52 18 c0 ca 7e f3 bc 63 cf 2c 3f
       -0.0038912976 -2.380014 -0.029723544 0.67503947
000040 99 bc 9b 3d 77 4d 25 bf e6 ee 09 3d 37 04 24 3f
       0.076043315 -0.64571327 0.033675097 0.6406893
000050 22 63 91 3e a2 be 80 bf ba 09 5e be ae ab 51 bf
       0.28395945 -1.0058177 -0.21683398 -0.8190259
000060 7d 3b 2a 3f bb 8b 25 be 09 44 0b ba 20 1d e2 bf
       0.6649702 -0.16166584 -0.0005312567 -1.7665138
000070 d9 ae bd bf 6e c6 a5 bf d3 f4 90 be a5 e1 5c bd
       -1.4818984 -1.2951181 -0.28311786 -0.05392613
000080 7a f5 64 be 89 db 91 3b 73 bf c4 be 49 2e bf 3e
       -0.22359267 0.0044512195 -0.38427314 0.3734
000090 16 25 38 3f 03 8c fd 3d 3d a1 73 3e 94 f0 ef 3d
       0.7193159 0.12380221 0.23791976 0.117158085
0000a0 fb 8f 4e bb 90 cd 1f 3c 23 87 8f be 84 d9 6f 3e
       -0.0031518925 0.0097536 -0.2803279 0.2342282
0000b0 2d 55 2e bd 0c 27 37 be 43 4f ec be e1 56 ea ba
       -0.0425617 -0.17885989 -0.46154222 -0.0017878675
0000c0 6b 90 1f c0 93 51 37 3e c9 83 5d 3f d1 cf 91 be
       -2.4931896 0.17902212 0.86529213 -0.28478864
0000d0 30 73 63 bf 11 1b a3 bd 66 0b 26 3a 35 8c 6c 3e
       -0.8884764 -0.07964147 0.0006334096 0.2310036
0000e0 ae 1c 20 40 87 29 7e be b3 bb 6e be 37 60 e4 be
       2.5017505 -0.24820529 -0.23313789 -0.44604656
0000f0 5a 5d 95 3e d2 75 15 bc 27 24 47 3f 7d ea 3a be
       0.29172784 -0.009122329 0.7778954 -0.18253513
000100 fb c5 d4 be 4e 40 d0 3d 8d 59 dd 3e 9e 02 05 3e
       -0.41557297 0.10168515 0.43232384 0.1298928
000110 91 6d ee be 79 6b 7e 3e c5 59 a5 c0 63 9d a7 3e
       -0.46567968 0.24845685 -5.167208 0.32737264
000120 c5 53 22 c0 5c 07 04 3e 14 ac 84 bf e0 f4 4d 3d
       -2.536363 0.12893432 -1.0365014 0.05028236
000130 33 bb df 3d 3c 94 ab be 0a 65 51 3e 7a 3d e4 3e
       0.10924377 -0.3351153 0.204487 0.44578153
000140 74 93 83 be a3 93 4f 3d 51 cd 87 3e 4b 90 1d 3f
       -0.25698435 0.050677907 0.2652383 0.615483
000150 aa c7 75 bf da ef eb be d7 95 7a be 7d e2 f8 3e
       -0.9600779 -0.4608143 -0.24471222 0.48610297
000160 8e a8 20 bd da a3 00 bf 5c 2b f8 3d eb f5 5f 3f
       -0.039223246 -0.5025002 0.12117645 0.87484616
000170 72 4e 62 bd e5 4a f0 3f 92 ab 46 be 25 37 99 bf
       -0.055250593 1.8772856 -0.19401386 -1.1969954
000180 18 ba ab 3d f7 75 1d 40 b6 df 93 be 6e 28 26 3f
       0.08385104 2.460325 -0.28881615 0.6490544
000190 66 18 84 3e 1e 69 36 bf 75 91 6a 3d c8 a5 53 bb
       0.25799865 -0.71254146 0.057267625 -0.0032294858
0001a0 31 69 df bd 8e 5d 02 c0 4d 71 54 3f d4 dd 4a c0
       -0.109087355 -2.0369601 0.82985383 -3.1697893
0001b0 04 81 b7 3d 48 1e ba 3f 6f 6f 1c be 1c f1 4c c0
       0.08960155 1.4540491 -0.15276884 -3.2022161
0001c0 82 00 fc bd cd e9 84 be c8 b5 77 be 75 9d 89 3e
       -0.12304784 -0.25959626 -0.24190438 0.26877943
0001d0 58 41 e0 bc ec ca 88 be 72 05 7e be df 79 61 3f
       -0.027374908 -0.26717317 -0.24806765 0.88076586
0001e0 85 6a 30 3f 5c dc f1 be 71 44 36 bf 9b b6 d5 3d
       0.68912536 -0.47238433 -0.71198183 0.1043522
0001f0 9e 22 38 3f 68 1a 02 3e 19 af 33 bd cd c3 20 3f
       0.7192782 0.12705386 -0.043868158 0.6279877
000200 12 8c 06 3f 71 39 22 bf 1b 92 06 bd 9a 61 25 3f
       0.5255748 -0.633689 -0.03285418 0.64602053
000210 31 07 0e 3e 46 96 1e bf c3 66 01 3f d2 4b b1 bd
       0.13869931 -0.6194805 0.50547427 -0.0865704
000220 e6 48 06 bf 8a 44 20 3c 1d 29 01 3f 83 bc c9 3d
       -0.52454984 0.009781966 0.5045336 0.09850409

map_net_in.bias f4 [20]
000000 1e 4b 0b c1 21 83 f9 3c 9e 56 c0 c0 f1 90 15 40
       -8.705839 0.030458035 -6.0105734 2.3369715
000010 3e 89 1a 3d 14 d7 ed 3f a1 a5 54 bd 63 2f 9f 3f
       0.03772854 1.8581262 -0.05191577 1.2436336
000020 48 69 e5 be 66 4d 42 c0 57 d6 c1 bf a7 5f 4d 40
       -0.44806886 -3.035974 -1.5143536 3.2089632
000030 a4 3d e3 40 ca 14 cc 3f 1f d2 e8 be 3f 41 82 be
       7.1012745 1.5943844 -0.4547281 -0.25440404
000040 02 60 c1 bc 83 7b 77 3f 3e c3 fe bc 69 5b 2b c0
       -0.02360535 0.9667284 -0.031098958 -2.6774542

map_net_hid.0.weight f4 [20, 20]
000000 7a 8b 93 3f 8e f1 8b 3e 47 14 cb 3d f6 7e 71 be
       1.152694 0.2733273 0.09915977 -0.23583588
000010 dc 92 ca 3e dd 66 f2 3e 72 af 38 bc c1 90 0e 3f
       0.3956517 0.47344103 -0.011272298 0.55689627
000020 19 30 e0 3c a9 d9 37 bd e0 37 43 bf 57 c2 a6 be
       0.027366685 -0.04488531 -0.76257133 -0.32570145
000030 3f da e4 be ec ef 0c 3f f7 02 43 bc 4c c7 0e 3d
       -0.4469776 0.5505359 -0.011902562 0.034858033
000040 a6 c3 20 bf fa 94 3d 3e 80 b9 8f be c9 3a 45 3e
       -0.62798536 0.18513861 -0.28071213 0.19260706
000050 ee ae 9d bf 08 ac 90 bc 7c 92 44 3e cb c7 db 3e
       -1.2319009 -0.017660156 0.19196504 0.42925867
000060 d4 09 60 be bb cd 7a 3f 14 e6 2e be 85 3a 6b 3f
       -0.21878749 0.9797017 -0.17079955 0.9188617
000070 cd 71 09 3f b0 af a3 3e 71 6a d0 3e 9f 08 4e bf
       0.5368927 0.31969976 0.40706208 -0.80481905
000080 a6 9c 14 3d fd 59 9a 3e bf 2c b1 3d 60 fb 6f be
       0.036282204 0.3014678 0.08651113 -0.23435736
000090 af eb 4d be b7 a1 61 bd 38 34 05 bd 85 45 6d be
       -0.20109437 -0.055085864 -0.032520503 -0.23171051
0000a0 17 92 82 bd 90 f9 e8 3c 30 7c c2 3f 21 46 58 3e
       -0.06375521 0.028439313 1.5194149 0.21120502
0000b0 8b 5b 91 3c 74 3b b4 3c ed a6 a0 bd 1c a3 88 bd
       0.017743846 0.022001006 -0.078443386 -0.06671736
0000c0 39 a8 4f 3c 42 18 d7 be 3c 12 2a 3f ec 55 aa 3d
       0.012674385 -0.42010695 0.66434073 0.083171695
0000d0 6e ad e1 3f 6f 6f c9 bd 46 07 ef 3d 18 4d 70 bd
       1.7631052 -0.098357074 0.11671309 -0.058667272
0000e0 ae 11 ee 3e 08 16 67 bf 7b 20 71 3e a4 99 ae 3f
       0.46497864 -0.9026799 0.23547547 1.3640637
0000f0 d8 3c 42 3e 9b 6a 5a bf 9c a0 d4 3d 92 eb 55 bf
       0.18968523 -0.8531892 0.10382196 -0.83562577
000100 01 a0 0f be 81 25 df 3d f4 8f 6c 3f 9e 83 61 bf
       -0.1402588 0.10895825 0.92407155 -0.88091457
000110 99 a7 33 bd fd af 23 3e 1b 78 14 3e 62 6c 49 3e
       -0.043861005 0.15985103 0.14498942 0.19670251
000120 2f 04 b8 3c 22 9a 55 3e e3 0e 9c 3f db e1 3a 3e
       0.022462932 0.20859578 1.2192043 0.1825022
000130 2f 9b dd be af 38 84 bd 7d fe 1b be ae 8c f8 bd
       -0.43282458 -0.06456124 -0.15233798 -0.121362075
000140 70 22 d0 3e 1b a0 c2 3d 11 f4 8b bf 39 a3 22 be
       0.40651274 0.09503194 -1.0933858 -0.15882577
000150 b7 70 f1 be 0b ac cf be 15 78 54 bf aa d1 c2 be
       -0.47156307 -0.40560946 -0.8299573 -0.38050586
000160 cc f0 a1 3b c1 19 03 3e e0 05 f7 3e 1d 21 0f 3f
       0.0049420353 0.12802793 0.4824667 0.559099
000170 ed f7 2e bc 36 4a 8e bc e8 a0 43 3f a0 ec 30 be
       -0.010679227 -0.01736937 0.764174 -0.17277765
000180 0c 0f af be 04 9c 05 3e cf 3a 1d 3e 00 76 6d bf
       -0.34191167 0.13047796 0.15354465 -0.9275818
000190 8c 26 7d be 3c a3 f0 bd 17 b5 0a be d0 40 e3 3d
       -0.24721736 -0.117498845 -0.13545643 0.110963464
0001a0 cc ee 41 be dc 69 74 3f 2a bc 0e be 22 28 ac 3e
       -0.1893875 0.9547403 -0.13938966 0.3362437
0001b0 96 0d 5e bf 71 12 30 bd 10 6c 31 3e 19 f9 02 3d
       -0.8673948 -0.042986337 0.17326379 0.03197584
0001c0 5d c2 a1 bd 0b 77 28 bf df 0d c8 3e b5 bc 94 3d
       -0.078984 -0.65806645 0.39073083 0.072625555
0001d0 a4 dc 01 3f ca a5 23 bd bf 02 54 3e e5 50 c3 3d
       0.50727296 -0.03995303 0.20704173 0.09536914
0001e0 76 85 d0 3b bc ea f9 be 83 73 03 be 76 60 6c be
       0.006363566 -0.488119 -0.12837033 -0.23083672
0001f0 e0 7f 41 bf 95 23 31 3e 1c 9b ac 3e 40 34 a8 3e
       -0.75585747 0.1729873 0.3371209 0.32852364
000200 36 e8 50 3f 98 97 06 bf a1 0c 86 be 3f 23 c8 bb
       0.81604326 -0.52575064 -0.2618151 -0.0061077173
000210 75 c3 36 3e 30 ef 88 3e 01 f8 07 3e e5 9b ee 3d
       0.17847998 0.26744986 0.132782 0.11650828
000220 b8 82 d0 3e f4 80 51 3c 36 06 a0 3e 69 e6 6f 3d
       0.4072473 0.0127870925 0.3125474 0.058569346
000230 9a 80 90 3e 6b 4a d7 3f a5 70 64 bf 31 75 40 bf
       0.28223115 1.6819586 -0.8923438 -0.7517882
000240 d4 1c de bc f9 b9 a8 be 14 6b 0d bf 59 a2 fb 3e
       -0.027113356 -0.32954386 -0.55241513 0.491473
000250 27 b0 97 3e 59 40 3a 3e 9d b7 58 bf 12 ba 1b 3f
       0.2962658 0.18188609 -0.8465517 0.60830796
000260 8a 95 96 bc cc 10 8c be de 97 f4 3f 5c 6f 46 3e
       -0.018381853 -0.27356565 1.9108846 0.19378418
000270 9e f9 1f 3f 0a 54 65 3e b2 8a 95 3d 7d 63 99 3e
       0.6249026 0.2239534 0.07301845 0.29958716
000280 d1 b6 b7 3e 2e 2f 47 3d 22 be 86 be cd 2f 7f be
       0.35881665 0.04862898 -0.26316935 -0.24920578
000290 bc 0b 89 3e 81 cb 00 bf 9d e5 89 be 60 bd 60 bf
       0.26766765 -0.5031052 -0.26932994 -0.87788963
0002a0 d6 ef 85 3e ed 44 37 3e f4 6f 8b be 3c e5 5a 3f
       0.26159543 0.17897387 -0.2723385 0.85506034
0002b0 23 ab 16 be 78 9a 87 3e c8 92 48 be a8 cc b7 3e
       -0.14713721 0.26485038 -0.19587243 0.35898328
0002c0 c0 af de be 14 d0 9e bd f8 0d 43 be ae 6a bd ba
       -0.43493462 -0.077545315 -0.19048297 -0.0014451349
0002d0 c6 15 ab 3e 68 78 24 3d 17 01 36 be aa 98 66 3e
       0.3341505 0.04015389 -0.17773853 0.22519174
0002e0 63 de 99 be fb 4e 22 be c9 86 0d 3f c5 f2 04 3f
       -0.3005248 -0.15850441 0.5528379 0.51932937
0002f0 d4 a3 97 bd 92 7d a6 3e fb 02 de 3c f7 8c 51 3f
       -0.074042946 0.32517678 0.02710103 0.8185572
000300 2a 13 d4 bd db 6d a6 bd 09 d7 a0 3e a3 e5 64 be
       -0.10355218 -0.08126422 0.3141406 -0.22353224
000310 3a 82 d0 3e 70 ae 28 bb a1 13 98 3e ee 9b 06 3c
       0.40724355 -0.0025738738 0.29702476 0.0082158875
000320 1c e5 97 bf 6c 56 cb 3d 35 03 f2 bc fd 61 a2 3d
       -1.1866794 0.09928593 -0.029542545 0.07928846
000330 87 3c ea 3d 9a 3a b3 be 1b 70 99 3e 7c 3f 96 3c
       0.11437326 -0.35005647 0.29968342 0.018340819
000340 bf a6 aa bd 90 79 4f 3f 4b 6f 31 bf 9a 29 2f bf
       -0.083325855 0.81044865 -0.69310445 -0.68422854
000350 6f 2e b5 3e fb 15 11 bf 65 db 87 be ab 2e 6f 3d
       0.3538699 -0.56674165 -0.26534572 0.058394115
000360 ac 85 1b be df 11 02 3e a1 1d 60 bd 8c bf c1 bc
       -0.1518771 0.1270213 -0.054715756 -0.023650907
000370 9c 46 d8 bd db 65 22 bf 6c 99 e8 3e 7a 3e 02 bf
       -0.10560343 -0.6343667 0.45429552 -0.5087658
000380 5a b8 56 3e 3a 44 54 3e 53 80 ab 3f bc ed 2a 3e
       0.20968762 0.20729151 1.3398536 0.16692251
000390 44 12 8e bd 4d 13 b1 3d ad 98 cb 3d 8b 37 4f be
       -0.06937078 0.086462595 0.0994123 -0.20236032
0003a0 f2 9a d4 3e fc 6b 09 3e 2c 6c b2 bf 92 06 f4 3d
       0.41524464 0.13420099 -1.3939261 0.11915316
0003b0 d7 80 70 3e 5b 3c ae be 07 16 a9 3d a5 17 05 3f
       0.23486648 -0.34030423 0.082561545 0.51989204
0003c0 a8 c9 90 3e 31 21 71 bd f2 15 88 be 3f e5 b2 3e
       0.28278852 -0.058869544 -0.26579243 0.34940526
0003d0 3a 57 c2 bd 8c 43 c0 be c2 fd 67 be b4 83 06 bf
       -0.094892934 -0.37551534 -0.22655395 -0.52544713
0003e0 73 20 8e be 6d 6e 25 bf b3 4b 68 be b2 eb 0d bf
       -0.27759132 -0.6462162 -0.22685127 -0.5543777
0003f0 64 2c 16 3f 1a b3 f1 be 19 63 b1 3e 4c 82 07 bd
       0.58661485 -0.47206956 0.34645918 -0.033083245

map_net_hid.0.bias f4 [20]
000000 64 4d 8c 3f 62 2b 58 3d 1c fd 1f be f1 1a 8b bf
       1.0961118 0.052775748 -0.15623897 -1.0867597
000010 f0 03 f8 be 7d 33 4c be 72 00 bd bd 5b 3c 4f 3f
       -0.48440504 -0.19941516 -0.092286006 0.8095147
000020 d1 6e 30 be 27 96 b5 be 6b 32 be be 7a 5f 35 3f
       -0.17229773 -0.3546612 -0.3714784 0.7084881
000030 5b bb da bd 19 43 4d bf 2f 87 46 3d be d3 94 bf
       -0.106802665 -0.8018051 0.048468765 -1.1627119
000040 81 f6 0c 3d f1 68 1b be 99 a6 a5 3e e3 2c 85 be
       0.034414772 -0.1517675 0.32353666 -0.26010808

map_net_out.weight f4 [3, 20]
000000 6e 25 c2 be 56 be e9 be 67 0b 80 3d 49 83 af be
       -0.37919182 -0.45653027 0.06252175 -0.3427985
000010 fa 2e 1b bc 57 94 9d 3e 4b cb 5f 3e f3 1b ab 3d
       -0.009471649 0.30777237 0.21854894 0.0835494
000020 c1 be 31 3d 54 8b ea 3e d9 99 e3 be 81 59 26 3c
       0.043394808 0.45809424 -0.44453314 0.010153175
000030 03 f2 85 3e d9 23 fe bd 76 43 58 3e 80 da 9a bd
       0.26161203 -0.12409181 0.21119484 -0.07561207
000040 12 4c a6 3e 54 d4 fe 3d 70 f0 8e 3d 43 88 16 bf
       0.32479912 0.12442842 0.069794536 -0.5880167
000050 d8 9c a7 3d 20 76 95 bc 91 72 bc bb f5 dd a4 bd
       0.081842124 -0.018244803 -0.005750962 -0.080501474
000060 2f 08 53 3e 73 34 6d 3c f3 2c 13 b9 44 24 e4 3d
       0.2060859 0.014477837 -0.00014035757 0.111397296
000070 0e b4 d1 bc 17 18 0b be 07 38 8c bc d6 5f 68 3e
       -0.025598552 -0.13583408 -0.01711656 0.22692809
000080 18 43 0f bd f5 21 1e bc 22 44 90 3b 01 51 63 3e
       -0.034976095 -0.009651651 0.0044026533 0.2219887
000090 e2 67 d3 bc dc 70 86 3d bc 4f 35 3d 28 6d 8f bd
       -0.025806371 0.06564495 0.044265494 -0.07003242
0000a0 18 2f 29 3c b0 4c c9 3e 68 e1 eb be 83 67 78 be
       0.010326169 0.3931632 -0.4607041 -0.24258237
0000b0 53 75 83 bd 1b 49 77 3e 80 e7 91 3d 47 76 b3 bd
       -0.06418862 0.24148981 0.07124233 -0.08762794
0000c0 72 f6 f7 be 74 d4 4c be d3 85 d2 bd 76 50 ba 3d
       -0.4843021 -0.2000292 -0.10279431 0.09097378
0000d0 50 da 06 3e 28 ad 9e be f1 db 61 3e 61 de cd bd
       0.13169217 -0.30991483 0.22056557 -0.10052181
0000e0 5f 67 87 be bc e8 f3 be 19 66 bf be 3b bc 07 bf
       -0.26446053 -0.476385 -0.37382582 -0.5302159

map_net_out.bias f4 [3]
000000 41 45 23 3e d7 f9 7e bd 6c 3d 64 be
       0.15944387 -0.062249985 -0.22289056
