saved_models/3R/bilinear/map_net.pth (torch, 4247 bytes, 6 tensors)

map_net_in.weight f4 [20, 3]
-0.5477346 -0.5361684 -0.16841999 -0.3503565 -0.58282423 0.071983226 0.35881978 0.550411
0.27552265 0.7128171 -0.064108506 -0.034085084 -0.016384058 -0.030416707 -0.28573328 0.46030313
0.1187362 -0.13682383 0.1235543 -0.26261437 -0.069204696 -0.4713243 0.5327308 -0.25257334
-0.21084708 0.058124173 -0.55778545 0.3331018 0.7320987 0.44057477 -0.44409415 -0.36703083
-0.4086122 -0.53715456 0.15990666 -0.36039832 0.51645833 0.50829643 0.52962214 0.4357785
0.22434743 0.26889127 -0.46770337 -0.55626 0.11151679 0.5259421 0.5859193 0.54315615
0.15532397 -0.109242134 0.40106633 -0.19893794 0.27782878 0.20147365 0.39533243 0.22462021
-0.23306443 0.20242581 0.52178425 0.30361885
00000000: 5638 0cbf 5542 09bf 4a76 2cbe ed61 b3be
00000010: f833 15bf f16b 933d 3ab7 b73e bce7 0c3f
00000020: 4e11 8d3e 2e7b 363f 524b 83bd cd9c 0bbd
00000030: dc37 86bc 752c f9bc a24b 92be daac eb3e
00000040: f72b f33d 8c1b 0cbe 090a fd3d 6475 86be
00000050: 31bb 8dbd 6b51 f1be 0c61 083f 4b51 81be
00000060: 4ce8 57be 9d13 6e3d 07cb 0ebf 528c aa3e
00000070: d26a 3b3f 0493 e13e 4f60 e3be 77eb bbbe
00000080: 9e35 d1be f682 09bf 92be 233e 2186 b8be
00000090: 9d36 043f b71f 023f 5195 073f 5c1e df3e
000000a0: 55bb 653e 1eac 893e d176 efbe 0e67 0ebf
000000b0: ea62 e43d 24a4 063f cffe 153f 480c 0b3f
000000c0: 3f0d 1f3e 57ba dfbd 9158 cd3e 63b6 4bbe
000000d0: 933f 8e3e 1c4f 4e3e 0369 ca3e d702 663e
000000e0: 71a8 6ebe b648 4f3e a793 053f ee73 9b3e

map_net_in.bias f4 [20]
0.92762125 -0.6007451 1.6012822 0.74907744 -0.06803781 0.9361132 -0.26976243 0.14052457
-1.0115522 -0.55106074 1.9704932 -0.7417314 0.48908323 -0.55996674 0.3147974 -0.8079411
-0.9907614 0.4252485 -0.8562593 -0.42438528
00000000: 9678 6d3f 6eca 19bf d1f6 cc3f 8ac3 3f3f
00000010: 6857 8bbd 1da5 6f3f 4d1e 8abe ace5 0f3e
00000020: 8b7a 81bf 5112 0dbf 1f39 fc3f 1ce2 3dbf
00000030: 1e69 fa3e fb59 0fbf 202d a13e 3ad5 4ebf
00000040: 8aa2 7dbf 2cba d93e cf33 5bbf 0749 d9be

map_net_hid.0.weight f4 [20, 20]
0.012441031 0.25539953 -0.6747503 -0.5097956 0.30546486 -0.13014841 0.67945576 -0.093520544
0.53810346 -0.27104124 -0.051297955 0.37292102 -0.23357287 0.30457336 0.35316136 0.28879857
-0.11016142 -0.16662472 0.2318828 -0.31002274 -0.12546782 0.31672662 0.21402256 -0.3319349
0.014656632 -0.27020538 -0.44525537 0.11862109 0.07407486 -0.3176698 0.25811264 0.23059967
-0.1596445 0.5919851 0.2860732 -0.41595456 -0.7706104 0.6749883 -0.5019264 0.20052232
0.22071475 -0.2217272 0.2917587 0.4360563 0.24655302 -0.095782034 -0.06958063 0.22307937
-0.23449928 0.0010313084 -0.35572806 -0.093991734 0.19418378 -0.55823064 -0.3501901 -0.22789255
-0.30107555 0.47799245 -0.39408177 -0.49262732 0.27218574 -0.02421003 0.40955067 0.26480544
0.37156233 -0.16625653 -0.15459709 -0.0023662911 -0.30030143 0.15856975 0.057285182 -0.24237673
0.34495765 -0.58403265 0.010792694 -0.020553367 0.47662944 0.3760587 -0.27542615 -0.5573849
0.01184624 0.16229689 -0.16837163 -0.2056532 -0.21327893 0.09732753 -0.07257169 -0.44673282
0.06560861 -0.06913032 -0.21118705 0.022493765 0.12646335 0.15598483 0.096858345 -0.198194
-0.40112907 -0.633358 0.45490715 0.37619925 0.051731244 0.14385879 0.7142444 -0.25750566
-0.4605419 0.15470892 0.119660236 -0.22294271 -0.71703404 -0.16466565 0.14052737 -0.0013725398
-0.4248225 0.30897972 0.055978674 0.044089194 0.43862244 -0.029122304 0.16484988 -0.02797969
0.124526225 -0.054878198 -0.07662792 0.24955907 0.239842 -0.076090686 -0.24290015 0.07441397
-0.20438704 -0.035722252 -0.46656054 -0.08051525 0.31344792 -0.3214401 0.26917782 -0.010877764
-0.16172263 0.20212355 -0.15557858 -0.31843793 -0.39822012 -0.53293467 0.005611145 0.046973623
-0.6212529 0.39024106 0.99030536 0.1703559 -0.23276618 -0.09991139 0.10257218 -0.13763773
0.11118627 -0.04083971 -0.4236246 0.19306847 0.027328964 -0.59579206 -0.038926516 -0.055514533
0.26770452 -0.075169355 -0.8027781 -0.009468818 -0.49569878 0.09633353 -0.11192303 0.07711299
-0.45286098 -0.14721635 -0.80891323 0.20040166 0.38607326 0.33023787 -0.017772993 -0.1269469
0.52830803 0.34863836 0.095562205 -0.483615 -0.44518664 -0.040709827 -0.5452374 0.42584142
-0.1332806 0.38352323 -0.10719958 -0.5202674 -0.37226564 0.115133844 1.7452524 -0.1187334
0.1996113 -0.14799036 -0.0674237 0.23727551 -0.17107247 -0.13119173 -0.8691352 -0.28473854
0.3298384 0.64700073 -0.7147467 -0.14855914 0.6874202 -0.47842956 -0.4008499 0.1313963
0.0005601267 0.39365488 0.13167304 0.20328286 -0.0730533 -0.6578412 -0.38099802 0.24236204
-0.18545397 -0.12347821 0.51398927 -0.091913655 0.2788399 0.29222563 -0.06812374 -0.08359657
0.312339 -0.099414796 -0.16357 -0.2211223 0.1409615 0.12550195 -0.03441971 -0.20063001
0.36069757 -0.33796325 -0.25577796 0.10741591 -0.6516548 -0.33191943 0.3931698 -0.21705398
-0.032404676 0.05595144 0.66653126 -0.12375951 -0.25154293 0.46507907 0.34229183 -0.12156211
-0.37432486 -0.116452545 0.3658687 -0.24073009 -0.37516016 -0.11212411 0.11921434 -0.026449438
00000000: 77d5 4b3c bac3 823e 70bc 2cbf f781 02bf
00000010: e465 9c3e a045 05be d0f0 2d3f b387 bfbd
00000020: 26c1 093f ebc5 8abe ce1d 52bd 81ef be3e
00000030: ba2d 6fbe 0af1 9b3e 91d1 b43e 68dd 933e
00000040: 509c e1bd ac9f 2abe af72 6d3e 4dbb 9ebe
00000050: a37a 00be fe29 a23e bb28 5b3e 5ff3 a9be
00000060: 5f22 703c 5c58 8abe 83f8 e3be 9def f23d
00000070: 8fb4 973d 9ea5 a2be 5727 843e 5222 6c3e
00000080: d979 23be 568c 173f 3078 923e fff7 d4be
00000090: b946 45bf 09cc 2c3f 407e 00bf b955 4d3e
000000a0: 0c03 623e 750c 63be 6561 953e c542 df3e
000000b0: 6578 7c3e 5f29 c4bd 4a80 8ebd eb6e 643e
000000c0: 9420 70be f82c 873a fd21 b6be bd7e c0bd
000000d0: 1dd8 463e 34e8 0ebf 1e4c b3be aa5c 69be
000000e0: 9326 9abe 6dbb f43e 16c5 c9be a639 fcbe
000000f0: ee5b 8b3e 1d54 c6bc a0b0 d13e 9494 873e
00000100: 6b3d be3e 273f 2abe b34e 1ebe c713 1bbb
00000110: 1cc1 99be 1c60 223e dea3 6a3d 9b31 78be
00000120: 4a9e b03e 2a83 15bf d7d3 303c 895f a8bc
00000130: c608 f43e c48a c03e a804 8dbe c7b0 0ebf
00000140: bb16 423c 2831 263e 9d69 2cbe c196 52be
00000150: cb65 5abe a853 c73d 77a0 94bd 2aba e4be
00000160: cf5d 863d 3294 8dbd 6b41 58be d844 b83c
00000170: 9c7f 013e 7dba 1f3e ab5d c63d 5ef3 4abe
00000180: ca60 cdbe c023 22bf 97e9 e83e 309d c03e
00000190: 24e4 533d b84f 133e b9d8 363f c8d7 83be
000001a0: 26cc ebbe 046c 1e3e 6d10 f53d 184b 64be
000001b0: 8b8f 37bf 1d9e 28be 68e6 0f3e cbe6 b3ba
000001c0: 5682 d9be 9732 9e3e e549 653d df96 343d
000001d0: 1f93 e03e e691 eebc 68ce 283e aa35 e5bc
000001e0: 9b07 ff3d f6c7 60bd 19ef 9cbd 6a8c 7f3e
000001f0: 2499 753e 6fd5 9bbd d1ba 78be 5a66 983d
00000200: d64a 51be 7f51 12bd 06e1 eebe 2ee5 a4bd
00000210: 3f7c a03e cc93 a4be add1 893e a638 32bc
00000220: 9e9a 25be 7af9 4e3e fe4f 1fbe 4c0a a3be
00000230: 82e3 cbbe 686e 08bf b2dd b73b 6a67 403d
00000240: 6e0a 1fbf adcd c73e a784 7d3f c771 2e3e
00000250: 425a 6ebe 589e ccbd 5d11 d23d e8f0 0cbe
00000260: a1b5 e33d 8a47 27bd 53e5 d8be beb3 453e
00000270: fee0 df3c d485 18bf 6971 1fbd 3563 63bd
00000280: 9110 893e 64f2 99bd de82 4dbf 1a23 1bbc
00000290: 3bcc fdbe 844a c53d e737 e5bd 6aed 9d3d
000002a0: 65dd e7be e2bf 16be f014 4fbf 1836 4d3e
000002b0: 65ab c53e f014 a93e ab98 91bc 5efe 01be
000002c0: 323f 073f ba80 b23e 1eb6 c33d 639c f7be
000002d0: 81ef e3be 59bf 26bd ae94 0bbf e307 da3e
000002e0: b67a 08be 285d c43e 748b dbbd 3f30 05bf
000002f0: 9a99 bebe 4bcb eb3d 6e64 df3f 7f2a f3bd
00000300: e866 4c3e c98a 17be 7015 8abd 5af8 723e
00000310: 9f2d 2fbe 2057 06be a57f 5ebf 40c9 91be
00000320: 94e0 a83e d7a1 253f a4f9 36bf e31f 18be
00000330: c5fa 2f3f b8f4 f4be 333c cdbe c08c 063e
00000340: 77d5 123a 228d c93e 4cd5 063e 6229 503e
00000350: f89c 95bd 4868 28bf 2c12 c3be c12d 783e
00000360: a5e7 3dbe 25e2 fcbd cd94 033f 3a3d bcbd
00000370: 1ac4 8e3e 999e 953e 7684 8bbd ae34 abbd
00000380: e6ea 9f3e fc99 cbbd e57e 27be e26d 62be
00000390: 3658 103e 9583 003e affb 0cbd f471 4dbe
000003a0: 5aad b83e 8509 adbe 54f5 82be dffc db3d
000003b0: d9d2 26bf 58f1 a9be 8d4d c93e 6643 5ebe
000003c0: c4ba 04bd 562d 653d cba1 2a3f a075 fdbd
000003d0: 3cca 80be d81e ee3e e040 af3e 8ef5 f8bd
000003e0: 82a7 bfbe ac7e eebd 2453 bb3e f381 76be
000003f0: fe14 c0be 53a1 e5bd a626 f43d 7eac d8bc

map_net_hid.0.bias f4 [20]
0.12840116 0.27147025 -0.0052726096 -0.12539442 -0.38942894 -0.32828397 -0.18420286 -0.002446091
0.41616017 0.45753196 0.040887564 -0.037211694 -0.1181484 0.58571136 0.07942656 -0.18455847
0.018766465 -0.12649328 -0.7373712 0.21494801
00000000: 987b 033e 26fe 8a3e dbc5 acbb 6567 00be
00000010: 3b63 c7be d614 a8be ad9f 3cbe 994e 20bb
00000020: f212 d53e a141 ea3e b879 273d 4a6b 18bd
00000030: caf7 f1bd 2ef1 153f 64aa a23d e5fc 3cbe
00000040: 21bc 993c 7487 01be 5cc4 3cbf 551b 5c3e

map_net_out.weight f4 [2, 20]
-0.6437823 0.65913093 -0.033114668 -0.25685352 0.78650546 -0.66245276 0.5329515 0.1765188
0.8055799 0.6518964 0.12840782 0.29136455 -0.7249099 -0.81238204 -0.63325924 -0.28579572
0.47039643 -0.516855 -0.5929686 0.4351346 0.115486756 -0.515873 0.8141804 1.2080146
-0.5452861 -0.10573113 0.6836342 0.5996747 0.17799287 -0.65140015 0.7468148 0.50623286
-0.18674068 0.020926492 -0.31273878 0.6928469 -0.81532073 -0.14462614 0.17773578 0.2321743
00000000: ebce 24bf cebc 283f 3fa3 07bd 4e82 83be
00000010: 6c58 493f 8196 29bf 826f 083f 58c1 343e
00000020: 7c3a 4e3f afe2 263f 577d 033e bc2d 953e
00000030: b293 39bf 45f8 4fbf 471d 22bf d153 92be
00000040: cdd7 f03e 9c50 04bf cacc 17bf f6c9 de3e
00000050: 5284 ec3d 4110 04bf 206e 503f 39a0 9a3f
00000060: df97 0bbf 9089 d8bd a702 2f3f 4884 193f
00000070: c343 363e 29c2 26bf 412f 3f3f 7a98 013f
00000080: f338 3fbe 096e ab3c 4c1f a0be 6a5e 313f
00000090: dcb8 50bf e018 14be 5e00 363e 1abf 6d3e

map_net_out.bias f4 [2]
-0.23230875 -0.030431218
00000000: 58e2 6dbe e44a f9bc
