saved_models/3R/bilinear/map_net.pth (torch, 4247 bytes, 6 tensors)

map_net_in.weight f4 [20, 3]
00000000: b7f8 10bf eb4a 0dbf ff31 cfbe 8e13 153f
00000010: 0191 d0bd 80af b33c aea5 c03c 1968 523e
00000020: 09a3 543f 40db 003f 0531 043f 0068 19be
00000030: 8794 b23e ae92 4d3e b306 07bf df9f e3bd
00000040: 83fb f83e eb05 37be 98ff d23d 72f6 42be
00000050: 932e 3bbf 71d4 303e 3aec 743e f248 bbbc
00000060: 259e e93e dea0 033f 6ae5 103f 8561 c4be
00000070: 5986 fc3e d954 3ebd 7567 783e e603 543d
00000080: 006d c4bd dcd4 9e3e 6c44 ebbd 553b 903e
00000090: b9af d43e eda2 d0be cb85 d5bd f0cf 1ebf
000000a0: 9704 a83d f439 16bd 7018 0bbf 6b6f 16bf
000000b0: ff75 2a3d f4f1 ddbe a8ee a7be de2b 87be
000000c0: 0457 d6be 2a15 e2be a0dd d4be e415 073e
000000d0: d426 c93d b4a5 393f f759 c4be c706 f4be
000000e0: ffcd dcbe fd9f a93d a2cb 08bd 478c 00bf
-0.5662951 -0.5519244 -0.40467831 0.58232963 -0.10183907 0.02193427 0.023516502 0.20547523
0.8306127 0.5033455 0.516373 -0.14981079 0.34878942 0.20075485 -0.527446 -0.11114477
0.48629388 -0.17873351 0.10302657 -0.19039324 -0.7311794 0.1726854 0.23918238 -0.022861931
0.45628467 0.5141734 0.5660006 -0.38355651 0.4932125 -0.046467636 0.24258216 0.05176153
-0.095911026 0.31021774 -0.1148766 0.28170267 0.41540316 -0.40749303 -0.104259096 -0.6203604
0.082040004 -0.036676362 -0.54334164 -0.5876376 0.041616436 -0.43348658 -0.32799268 -0.26400656
-0.41863263 -0.44156772 -0.41575336 0.13191944 0.09821859 0.7251847 -0.38349888 -0.4766142
-0.43125913 0.082824685 -0.033397324 -0.50214046

map_net_in.bias f4 [20]
00000000: 74c7 403f 89af 2bbf 26bc 7fbe 7435 70bf
00000010: 254c 263f 0a7e b6ba 8d29 d7bc 1fca 2e3f
00000020: f152 3b3f c83f 44bf b6be d7bc e99c e3be
00000030: 789d 32be 252d fcbe 2aad 30bf 4483 643f
00000040: d441 b5bf ca45 813f 00a2 0740 1f84 af3f
0.7530434 -0.6706472 -0.24974117 -0.93831563 0.6495994 -0.0013923061 -0.02626493 0.6827716
0.73173434 -0.7665982 -0.026336055 -0.4445565 -0.17442882 -0.49253193 -0.6901423 0.89262795
-1.4160714 1.0099423 2.1192627 1.3712195

map_net_hid.0.weight f4 [20, 20]
00000000: e63a 8bbe db2a 62bd ec11 48be 470a 723e
00000010: 7884 0f3f 7196 853e 0f83 68bd ff49 72bc
00000020: 9443 5abe 000e ab3d d29e aebe bdd8 1bbd
00000030: 8fc3 acbe 42cf 6dbd 2e63 033e 06b7 913e
00000040: 218e 37be 9ce2 483e ea08 8e3d 523c bdbe
00000050: d47b 3dbe 40e3 213e f647 543e a5c5 e03e
00000060: 4db0 52be 1f41 ba3e 1306 d83e 88e4 d23c
00000070: 893b ca3d 5f66 433e 8870 153f f4f2 833f
00000080: 3a08 bcbe e852 2a3f 77a3 303d 1566 16bf
00000090: 2eaa 78be 5db0 f93d e179 09bf ec41 f2be
000000a0: a0fe 1dbe 27a5 2e3d 120a 6bbd f490 863e
000000b0: 8b9f b43c ca2e b4bb b609 28bf 52e7 993d
000000c0: fa05 353e 8b4c 56bf 62ee 31bf db50 5bbf
000000d0: 5cfb 313e 7a2c bfbd 9678 f8bd 1e33 923f
000000e0: 0b38 b4bd 3906 14bd db35 8c3f 1dec b5be
000000f0: 7e60 9c3d c141 38be 36c4 a63e c57b b2bd
00000100: 5600 483d 6f90 58bd 7088 01bf 992b afbe
00000110: 3c91 3b3e 1f9c 33bd 074a a93c 1dc5 3ebe
00000120: 257c ecbd 8f1e f43d acac d83e 6e93 0fbe
00000130: 870b 8f3e 8849 6b3e e4fb 693e 771b 943e
00000140: ad36 debe 5bc4 6bbd c853 86bc d916 4b3e
00000150: 655c d03d 1864 2abe 2d00 5ebe 050e ec3e
00000160: 4e09 0fbe e3a2 2b3e 1b45 903d 9f30 a3bd
00000170: e29d 9a3d 3725 123f c72d be3e 06d2 853d
00000180: ce8b e9be 7ab1 91bd c7cb 5a3f d421 ccbe
00000190: b82f debd 0155 b63d b745 1dbe 0817 8f3e
000001a0: e3ae 283e 7ca3 97be e266 c33b ea6d 8bbe
000001b0: 66b6 20be 8963 98bd 3e3b 21bf 2757 bbbe
000001c0: d15b ac3e 3879 85be e146 bdbe d734 a13f
000001d0: 759f 913e ab08 0cbe a6a9 343f 1d0e 093d
000001e0: c62a a23e c2fb 03bf 19d5 013e 69a3 eabc
000001f0: 78c2 df3d 4065 a33e 0556 0a3e bd50 b6be
00000200: ce23 b73e d61b c9be 9e16 173f a269 853e
00000210: 6df7 ec3e 81b7 c13d d8d2 dcbe 0a28 c4be
00000220: ccf6 66bc 8670 20bd 6190 1b3f 66c8 c83c
00000230: 3557 22bf 4d1d a73e 6dc1 13be 1348 86be
00000240: 2368 54be e155 c5be 66e7 26be 712f 4c3e
00000250: 5584 cebd 5273 04bd e80b 63be 1d2f 34be
00000260: 4245 98be 3536 ccbd 153a 59be 1d2b 013f
00000270: 9061 38be 5354 743e 2c63 99be 7923 42be
00000280: 6e1c 493e d22e f5bd 4cf5 efbe d28b dabe
00000290: ac81 1ebe 5d9e 0cbe 552d 09bc 4780 263e
000002a0: 4f6b 103e b4c6 e93d a4fa 593f 6678 0d3e
000002b0: f1fa 02bf a29f b3be b1dd d6be 3c08 edbe
000002c0: 6879 e6be 2781 403f 284b c8be 51d2 cd3e
000002d0: b852 03bf 8648 bd3d cbf0 d73e 0be4 6b3e
000002e0: f713 533e ea63 14be da3e 3a3d 206b ac3e
000002f0: a363 3e3f 213b a03e 3a06 e5be 723c 2d3d
00000300: 2153 003d a5d2 c3be e328 b8be 5e83 bcbd
00000310: 02fd 9abe 453f 83be d868 aabe f127 18bf
00000320: 35a3 c73e f5dd 5bbe f3c4 553e aa93 68be
00000330: 98e4 be3e c23d 583d 0079 f03d 7b18 13bd
00000340: f221 913c 65b7 d83e 88e3 0dbf 9eb4 f6bd
00000350: ed91 cbbd e166 b33e 7f2d 06bd 2a4b 0c3e
00000360: 470a acbd bfdd 2bbe 5adf e5bc 9190 02bf
00000370: df69 44be d0c6 133f 4bdf d73e 4975 c23e
00000380: 41f1 963e 4d35 5fbe 15bf a4bd f242 bdbd
00000390: 2c97 473e 9ad7 513e e152 923e 2279 643e
000003a0: b391 e0be 8b74 47be 90f5 ae3e 2d13 acbd
000003b0: 5067 b33e 26a9 c33e 8340 d7be 396c 3c3e
000003c0: 9df9 bd3d 3974 f0be ac14 be3d 2eb1 6abe
000003d0: 72a5 00bf 534c 78be 9daf ff3d 4a54 0fbe
000003e0: 89d7 8c3e 1b42 3c3d aa43 99bd bccc 4bbc
000003f0: c761 87bd 8e20 dabe 69ca 1e3c 2ff7 f13d
-0.27193373 -0.05521665 -0.19538087 0.23636733 0.56061506 0.2609134 -0.056765612 -0.01478815
-0.21314842 0.0835228 -0.34105545 -0.038048495 -0.3374295 -0.058058985 0.12830803 0.28459948
-0.17925312 0.19617695 0.06935294 -0.36960083 -0.18504268 0.15809345 0.20730576 0.4390079
-0.20575066 0.36377808 0.42192134 0.025743738 0.09874637 0.1908202 0.58374834 1.0308518
-0.36725026 0.66532755 0.043124642 -0.58749515 -0.24283668 0.12191842 -0.537016 -0.4731592
-0.15429163 0.04263797 -0.05738265 0.26282465 0.022048732 -0.0054987418 -0.6563982 0.07514824
0.17678061 -0.83710545 -0.6950437 -0.8567025 0.17381042 -0.09334655 -0.12132375 1.142185
-0.08799752 -0.036138747 1.0953935 -0.35531703 0.07635592 -0.17993833 0.32571572 -0.087150134
0.048828445 -0.052872118 -0.5059881 -0.3421295 0.18317121 -0.04385006 0.020665182 -0.1862988
-0.11547116 0.11919891 0.42319238 -0.14021084 0.27938482 0.22977269 0.22849995 0.28927204
-0.4340109 -0.057560306 -0.016397372 0.19832934 0.10173873 -0.16639745 -0.21679755 0.46104446
-0.13968393 0.16761355 0.07044431 -0.07968258 0.07549645 0.57088035 0.371443 0.065341994
-0.45614475 -0.07113929 0.8546719 -0.3986956 -0.108489454 0.08902932 -0.15358625 0.2794726
0.16472964 -0.29616916 0.0059631923 -0.27232295 -0.1569458 -0.0744086 -0.6298102 -0.3658993
0.336638 -0.26069045 -0.3696814 1.259425 0.2844197 -0.13675182 0.7057136 0.033460725
0.3167326 -0.51556027 0.12678947 -0.028642373 0.10925764 0.31913185 0.13509376 -0.35608473
0.35769504 -0.3927905 0.59018886 0.26057154 0.4628252 0.09458829 -0.4312961 -0.38311797
-0.014096927 -0.03916981 0.6076718 0.02450962 -0.6341432 0.32639542 -0.14429255 -0.26226863
-0.2074285 -0.38542083 -0.16299209 0.19939972 -0.10083834 -0.03233654 -0.2217251 -0.17596097
-0.2974034 -0.09971277 -0.21213563 0.5045641 -0.18005967 0.23860292 -0.29958475 -0.18958844
0.19639751 -0.11971821 -0.46866834 -0.426848 -0.15479153 -0.13732286 -0.008372624 0.16259871
0.14103435 0.11414853 0.8514807 0.1381546 -0.51164156 -0.35082728 -0.41966012 -0.46295345
-0.450145 0.7519707 -0.3911984 0.4019952 -0.51298094 0.092423484 0.42175898 0.2303621
0.20613085 -0.14491239 0.045470096 0.3367548 0.74370784 0.31295112 -0.44731313 0.042293973
0.031329278 -0.38246647 -0.35968694 -0.09204744 -0.30271155 -0.25634208 -0.33283114 -0.59435946
0.38991705 -0.21471389 0.20875911 -0.2271258 0.37283778 0.05279327 0.11741829 -0.03591202
0.017716382 0.4232742 -0.5542531 -0.12046169 -0.099399425 0.35039428 -0.032758232 0.13700548
-0.08400398 -0.16783808 -0.028060604 -0.5100184 -0.19181012 0.5772524 0.42162547 0.37980106
0.29480937 -0.21797676 -0.080442585 -0.092412844 0.19491261 0.20492402 0.28578857 0.22311834
-0.4386116 -0.19478051 0.34171724 -0.08402095 0.3503976 0.38214988 -0.42041406 0.18400659
0.092761256 -0.4696367 0.092812866 -0.22919151 -0.5025245 -0.24247865 0.124846675 -0.13996997
0.2750819 0.04596148 -0.07483609 -0.012438949 -0.066104464 -0.42602962 0.009691813 0.11814725

map_net_hid.0.bias f4 [20]
00000000: a6a0 afbe cc27 713e 53ca 27be 5089 763e
00000010: 437d 6cbd 8472 7dbc b277 f6bd 0b47 783e
00000020: 0606 51bd 4e19 c83e 3ea8 dc3d 56d0 48be
00000030: ba7d 85bd 533f a0bc ae7c 053f ef37 923e
00000040: 00bf 493e 8dc5 293e 7e94 f33d 8744 c7bd
-0.34302253 0.23550338 -0.16385774 0.24075818 -0.057736646 -0.015469197 -0.12034549 0.2424585
-0.051031135 0.39081806 0.10774277 -0.19610724 -0.06518121 -0.019561445 0.5214337 0.285583
0.19701767 0.16579266 0.11893557 -0.097298674

map_net_out.weight f4 [2, 20]
00000000: d2bc f4be c19f f9bd 76ae aebe 9344 c93e
00000010: 1445 28bf c9ef 03be 9a48 473f 2a9d 96be
00000020: 825d 423e 4cbe 503d 6036 8e3e 023f e3be
00000030: 91b4 d03e e28e cebe 7b89 58bf 99f8 05bf
00000040: e56a 0fbf a0bd 993d f3cf 083f bff4 643e
00000050: a87b 2b3d c782 1dbf 6d8a 123f c190 d7bd
00000060: 4ed1 50bf dcc8 f03e d289 03bf 2f94 0c3f
00000070: a518 41bf 3416 2b3f 5c8d 533b 7426 383e
00000080: 5529 a73d 73e4 4cbe 8aed 5fbe 6194 90bd
00000090: 2ee3 dd3b 2c3c 22bf b590 453e d405 4c3f
-0.47800308 -0.12188674 -0.34117478 0.3931013 -0.65730405 -0.1288444 0.77845156 -0.29416782
0.18980983 0.05096273 0.2777586 -0.4438401 0.4076276 -0.40343386 -0.8458478 -0.52332455
-0.56022483 0.07506871 0.53442305 0.22358988 0.041865975 -0.61527675 0.5724247 -0.105256565
-0.81569374 0.47028244 -0.5138217 0.5491361 -0.7542823 0.66830754 0.0032280302 0.17983419
0.0816218 -0.20009021 -0.21867958 -0.07059551 0.0067714667 -0.63373065 0.19293483 0.79696393

map_net_out.bias f4 [2]
00000000: 3608 4d3e 857b 1b3e
0.20022663 0.15183838
