saved_models/3R/map_net.pth (torch, 4631 bytes, 6 tensors)

map_net_in.weight f4 [20, 7]
000000 7e b5 f5 be 21 22 03 bf 84 37 4b 3e 72 ba a9 3e
       -0.4799003 -0.5122395 0.19845396 0.3315006
000010 be 2b 86 bd 4a ed 53 bd 82 dc 3f bc a2 1d dc be
       -0.06551312 -0.05173997 -0.011710288 -0.42991358
000020 cd 21 e8 be 56 45 a7 3d 1a 7d da 3e 9a 92 5b bd
       -0.45338288 0.08167522 0.4267357 -0.053606607
000030 10 0f 91 3c 11 de 0e 3c 17 96 0e be 1a 26 42 3f
       0.017707378 0.008719937 -0.13924442 0.7583939
000040 f7 e7 57 bd 86 0f 06 3f d5 65 28 3d 3d 78 89 3d
       -0.052711453 0.52367437 0.04111274 0.06712387
000050 66 12 98 3d ca 39 9d be 70 ec 74 be 02 75 16 3e
       0.07425384 -0.30708152 -0.23918319 0.14693072
000060 dc 5d 0d be e0 4c 15 b8 66 e2 cb bd 79 3a d3 3c
       -0.13805336 -3.5595964e-05 -0.099552915 0.025784718
000070 de f9 2c 3f 71 b5 6a 3e 8e fa 22 3f 08 73 c8 be
       0.6756877 0.22920777 0.63663566 -0.39150262
000080 da 32 86 3e 8f 43 ea 3e e4 d0 ef 3c 8f 27 11 be
       0.26210672 0.45754668 0.029274411 -0.14175247
000090 6a a8 e8 be 73 46 b8 3d 36 b5 60 bd 3e d3 ef bb
       -0.4544099 0.08997812 -0.054860316 -0.007318883
0000a0 ce 9d 7d 3d 68 23 4a bd 3e a9 dd 3e 9f a9 a3 be
       0.061918072 -0.049350172 0.43293184 -0.31965348
0000b0 03 68 12 3e 1f ab a0 3e 8d 8e 98 bc 04 04 73 be
       0.1429749 0.31380555 -0.018622661 -0.23732
0000c0 21 2a 01 3d 4a ef f2 3e 49 f5 78 3d 5d 33 21 3f
       0.031534318 0.47448188 0.060780797 0.62969
0000d0 02 03 22 bf 96 c3 9a 3d a8 ab c7 3c 21 9a 6c bd
       -0.6328584 0.07556836 0.024373844 -0.057764176
0000e0 52 99 8f 3d bd 7e 71 3e 44 ef b9 be 1c 4a 01 3f
       0.070116654 0.23583503 -0.36315358 0.50503707
0000f0 bd 75 de bd 6d 78 7d 3e f9 36 91 be f8 fa 3e 3e
       -0.108623005 0.2475297 -0.28362253 0.18650424
000100 a1 8b 42 3e b8 c9 69 3d ba 69 89 3e f4 33 8a 3c
       0.18998577 0.05707714 0.26838475 0.016870476
000110 f9 83 20 be 14 8f 64 bd 8a 06 8f be 7d 9c a1 3e
       -0.15675344 -0.055800512 -0.27934676 0.31564704
000120 9f 1c a3 3e 24 a5 7b bd b0 4f 0f be 55 b4 ed bd
       0.31857774 -0.061436787 -0.13995242 -0.11606661
000130 e3 df 04 be 2d e4 86 bd 23 ea 83 3e f8 58 78 be
       -0.12976031 -0.0658649 0.2576457 -0.24252689
000140 f4 ef 2b bf 54 5a 6a 3c 4c 8e 49 bc 64 dc 42 3e
       -0.67163014 0.0143037625 -0.012301993 0.19029385
000150 e7 c5 01 bf 20 62 63 3e bd 8c 71 3c 03 b9 b1 3e
       -0.506926 0.222054 0.014743027 0.34711465
000160 e5 de 4b be 94 88 f2 3d 8d d9 88 3c 3c 52 81 bd
       -0.19909246 0.118424565 0.016705299 -0.06314513
000170 b5 61 26 bd f2 88 0e bd 5b d8 2a 3e b0 54 18 bc
       -0.040620524 -0.03479857 0.16684096 -0.009297535
000180 12 a1 45 3d ee a7 9b 3d 09 2c 96 bd 09 f6 24 be
       0.04824931 0.076003894 -0.07332618 -0.1610948
000190 93 a4 38 bf 23 06 bb 3e 1e 7b 52 3d 53 de 56 be
       -0.7212612 0.3652812 0.051386945 -0.20983247
0001a0 fa cc ff 3c 2d 44 ef 3d e9 c6 67 3e 6f bf 0b 3d
       0.03122567 0.116829254 0.22634472 0.034118112
0001b0 7e cc f2 3c 50 cb 72 be e8 86 55 3e 11 bc 02 be
       0.029638525 -0.2371037 0.20852244 -0.12767054
0001c0 01 73 b3 3e c5 2e 00 bf 84 b0 41 3c f0 15 d0 be
       0.3504868 -0.50071365 0.01182187 -0.40641737
0001d0 2c 1a 27 bd 90 95 f2 ba 9b aa 7a bd 84 64 64 bd
       -0.040796444 -0.0018507708 -0.06119786 -0.05575992
0001e0 12 4e 0b 3f fb 84 a3 be e7 99 ff be 89 05 1a 3d
       0.54416 -0.31937394 -0.49922106 0.037602935
0001f0 ff 30 dd bd 46 af 39 3d a9 47 84 3e 19 c7 3d bd
       -0.10800361 0.04533317 0.25835922 -0.046332452
000200 00 f8 0b bf a0 16 07 3f e5 a8 68 bd be 39 2c 3d
       -0.5467529 0.527689 -0.056801695 0.042047255
000210 46 4f 9a 3d 86 ee 8b be 64 05 8f be 00 a8 f2 be
       0.075346515 -0.27330416 -0.279338 -0.473938
000220 fd 2b b5 be d6 43 bd 3b de 34 c0 3d 7a d5 86 3d
       -0.35385123 0.005775909 0.093850836 0.06583686

map_net_in.bias f4 [20]
000000 8d 6e d6 3f 2b f8 e4 bd cb 31 90 3f 9d 2f b4 bd
       1.6752487 -0.11180147 1.1265196 -0.08798144
000010 09 e4 91 3e 7c dd bd 3e 91 61 a4 be 4f 2d 35 3c
       0.2849429 0.37083042 -0.32105687 0.011058166
000020 29 a4 16 bf 4f 86 05 3e a1 72 88 be 51 33 dc 3e
       -0.5884424 0.13039516 -0.26649955 0.430079
000030 c7 5a d8 bd f7 82 9b be 74 f0 04 3f 98 eb d0 3e
       -0.105641894 -0.30373356 0.519294 0.40804744
000040 31 91 73 3f 70 87 6e bf 8f e9 30 be 3c 38 ec bd
       0.9514342 -0.9317541 -0.17276596 -0.11534163

map_net_hid.0.weight f4 [20, 20]
000000 85 9c 9b 3e 98 c2 8f 3e 15 d3 8a 3d 51 71 4e be
       0.30392852 0.2807815 0.06778542 -0.20160414
000010 78 9f 0e 3d 9a cd 62 3f 2c 3d 8e bd 8e bf 8a 3e
       0.03482005 0.88594973 -0.06945261 0.2709927
000020 08 53 13 be fa c2 9b bf e0 55 1a be 16 b1 19 3f
       -0.14387143 -1.2168877 -0.15071821 0.60035837
000030 13 bb 36 3d 6a 2c 29 bf 54 6f 84 3f 67 4a e2 be
       0.044612 -0.66083395 1.0346475 -0.4419739
000040 88 b3 ba 3d a7 a8 e0 be be bb 13 3f ff b5 da bf
       0.09116274 -0.43878672 0.57708347 -1.7086791
000050 8e 62 4e 3e 16 b6 c7 bd 76 67 1e be 94 f7 b4 be
       0.20154783 -0.09751527 -0.15469155 -0.35345137
000060 76 b6 9c bd ec e3 f5 3e 11 2d 50 bd d6 22 f8 3e
       -0.07651989 0.48025453 -0.05082423 0.48464078
000070 3c d8 3c bf b6 a3 ca 3f ea 6d 00 3f 44 e9 05 bf
       -0.7376745 1.5831211 0.50167716 -0.5230906
000080 5c b0 1c 3d 32 e3 e1 3f 75 b7 a4 bd 9c f3 74 be
       0.038254127 1.764746 -0.08042804 -0.23921055
000090 58 59 d7 be a6 57 14 3f e7 13 96 bd 65 c7 c8 3f
       -0.4206035 0.5794624 -0.07328015 1.568585
0000a0 80 1b 0a 3f c5 ef fb 3e b2 36 87 bd 1e 87 8f 3c
       0.5394821 0.49206367 -0.06602229 0.017520484
0000b0 0b c0 3a 3d 89 b0 03 3f 95 d0 a8 3d 5e 1f 2d 3f
       0.045593303 0.51441246 0.08242909 0.6762599
0000c0 a6 65 55 bf 68 61 fe 3b ed fd ae 3e 2f 38 2b bf
       -0.8335823 0.0077630766 0.34178105 -0.66882604
0000d0 77 c0 a1 3d ee f8 17 bf 6e 67 84 3e 7b e5 c6 be
       0.07898038 -0.5936421 0.2586016 -0.38846955
0000e0 e8 51 48 bf 9f 36 fd 3e 84 10 03 3f a1 1f f3 3e
       -0.7824998 0.49455735 0.51197076 0.47485068
0000f0 e6 2b ae 3f fa 29 34 bf 8b f7 2c be e1 60 45 3e
       1.3607147 -0.7037655 -0.16891305 0.19275238
000100 ff 7e 5b 3e 33 e0 8c bf 69 c8 eb bb 87 6a d2 3e
       0.21435164 -1.100592 -0.0071955216 0.410969
000110 cf 57 98 3e df f7 13 be 6b 8a 8d 3f 81 e1 56 be
       0.29754493 -0.14450024 1.1057867 -0.2098446
000120 7d 35 d2 be d5 fa f4 3f 98 33 9f 3d 53 0d 0c bf
       -0.41056433 1.9139048 0.077735126 -0.5470783
000130 d2 6c ac 3d 57 a4 41 bf aa 8c 24 3f 3f 04 bc bd
       0.08419193 -0.7564139 0.64277136 -0.091804974
000140 50 60 d7 be b7 18 b9 be 35 f2 b5 bc 27 82 80 3f
       -0.42065668 -0.36151668 -0.02221022 1.0039719
000150 7e 29 bb 3e 9d c5 04 bf f2 56 11 3f 09 38 02 bf
       0.36555094 -0.51864034 0.56773293 -0.5086675
000160 5b 98 8d 3e e9 d9 5e bf f4 a5 74 3d c0 59 92 3c
       0.276553 -0.87051255 0.059728578 0.017865062
000170 ab 9a 0f bf 10 54 72 3f 3e f9 b0 3e 34 a0 5c 3e
       -0.5609538 0.9465952 0.34565157 0.21545488
000180 6e 20 3a 3f 4a f8 3e bf a7 54 b1 3e 46 12 1c bf
       0.72705734 -0.7459761 0.34634897 -0.60965383
000190 33 11 96 be 43 01 ef be c5 f9 23 bf 7e b3 d0 bf
       -0.29309997 -0.4668065 -0.64052993 -1.6304777
0001a0 de ed 4e be 12 69 86 3f 58 04 64 3d c9 52 54 3f
       -0.20207927 1.0500815 0.055668205 0.8293882
0001b0 4b 4a 27 bf 9f c9 95 3f 0a 3f e3 3e e8 57 5f be
       -0.6534774 1.1702155 0.44384032 -0.21810877
0001c0 62 2f c6 3e bf 9e ca 3f f7 ec 14 bd e8 64 13 be
       0.38708025 1.5829695 -0.0363588 -0.14393961
0001d0 33 58 73 bb cf f6 76 3f 91 13 1b 3f 29 cd 9d 3d
       -0.0037131428 0.9647035 0.6057673 0.07705147
0001e0 aa 55 d6 be 2d 0c 22 3f 0f 26 82 3e 28 c0 0c 3f
       -0.41862231 0.6329983 0.2541966 0.5498071
0001f0 8e 57 17 bd 8b 1c fd 3e 34 d2 e8 3d 48 95 16 3f
       -0.036948733 0.4943584 0.11368218 0.58821535
000200 fa 11 f2 3e c0 be 72 3e 4f 32 9b be 30 50 04 3e
       0.4727934 0.23705578 -0.3031182 0.12921214
000210 f8 91 77 3e 38 c2 01 bf 15 bc 3c be 75 6e 8a 3e
       0.24176776 -0.5068698 -0.18431123 0.27037397
000220 8e b5 8a be b8 a2 85 3e 3b 5a f2 3e e5 2d bc be
       -0.2709164 0.26100707 0.47334465 -0.36753765
000230 c7 99 83 bf 1d 39 c1 3f 67 7f 1c be 35 8a 77 3e
       -1.0281304 1.5095555 -0.15282975 0.24173816
000240 6d 02 c5 3e 6b e5 c7 be c0 53 80 bf b7 de 90 3e
       0.38478413 -0.3904222 -1.0025558 0.28294918
000250 bd d4 22 3f a5 af 02 40 ed 7e e5 be 7b fd 70 3f
       0.6360586 2.0419705 -0.448234 0.9413678
000260 a2 59 95 3e 01 da 0e 3e c1 30 6a bf 56 94 98 be
       0.29169947 0.1395035 -0.9148064 -0.2980067
000270 8c 3b 4d bf aa c5 b1 3e c9 cf 11 bf a4 f6 96 3f
       -0.80168986 0.34721118 -0.5695768 1.1794019
000280 0b 5b c7 bf 91 99 9e bd 6d dd 9a 3e ba fc 6b 3f
       -1.5574659 -0.07744134 0.3024706 0.92182505
000290 18 3c e7 bc 71 2b 0a 3e 83 2e 51 bf a6 c9 aa 3e
       -0.028226897 0.13493134 -0.81711596 0.3335697
0002a0 9a d4 56 3f 0e 71 1e be 5b 28 26 bf 85 68 a4 bd
       0.83918154 -0.15472814 -0.6490533 -0.08027748
0002b0 03 dd 5a 3f 26 3e fd bf ac e8 d2 be 4c dd 83 bf
       0.8549349 -1.9784591 -0.4119314 -1.030191
0002c0 7a 70 4f 3e 94 18 9c 3d 23 0b ff 3d 32 46 9f 3e
       0.2025775 0.076218754 0.12453296 0.31108242
0002d0 7a 77 65 3f 7d 7f 34 3f 0c 2c 0d bd fb 67 9e 3f
       0.8963543 0.7050703 -0.034465834 1.2375482
0002e0 7f d7 c2 bd 96 e7 66 bf 5a 0d 6c bf db eb b0 3f
       -0.09513759 -0.9019712 -0.9220787 1.3821977
0002f0 9d 53 3e 3e 51 9a 0f 3f 5b 7e 95 bf 21 ee 90 3e
       0.18586583 0.56094843 -1.1679186 0.28306678
000300 48 57 14 bf d7 df c0 bf 42 c3 88 3d 51 ec d1 3f
       -0.5794568 -1.506831 0.066778675 1.6400243
000310 e1 bd 07 bf 26 78 93 3f 5b 62 c9 3e 1c bb 64 bf
       -0.5302411 1.1521041 0.39332852 -0.89348006
000320 dd dd d5 3e 88 cd 3c bf b0 2a 71 bd f3 3a 9a bd
       0.4177083 -0.73751116 -0.0588786 -0.07530775
000330 cc aa 6e be 5f 17 a3 3f 67 3c 0f bf 4d 84 aa 3d
       -0.23307341 1.2741507 -0.5595154 0.083260156
000340 8b cc c9 be c9 a2 7e 3e 12 0f d6 3e 15 33 b4 be
       -0.39413866 0.24866785 0.41808373 -0.35195222
000350 2e 5b ea 3e f9 71 0e 3f f9 42 3e 3f 4c ef a2 be
       0.4577269 0.5564266 0.7432094 -0.31823194
000360 01 df 24 3f 87 d3 19 3e 79 95 97 3f f5 59 e4 be
       0.64402777 0.15022098 1.184249 -0.44599882
000370 c9 b6 ce be cc 07 80 bc 58 c0 e0 bd f2 68 c8 3e
       -0.4037383 -0.015628718 -0.10974187 0.39142567
000380 c6 25 b2 3e a8 37 d7 bd 2c ee a5 be 8e 64 64 be
       0.34794444 -0.105086625 -0.32408273 -0.22303984
000390 0e 2f 8e 3e 98 ad 24 3f d2 46 ed be b3 6d 73 3e
       0.27770275 0.64327383 -0.46343094 0.23772316
0003a0 41 19 74 3f e2 9b b7 bf 93 a4 20 be fc 3f 3a 3e
       0.95351034 -1.4344447 -0.1568778 0.1818847
0003b0 05 f6 d2 3e 6c 52 c0 3b 82 65 38 3e 1d b1 81 3f
       0.41203323 0.0058692005 0.18007472 1.0132176
0003c0 47 e2 06 be ac 8e fc bd d9 d1 a7 bc 91 eb f9 be
       -0.13172255 -0.123319 -0.020485805 -0.48812535
0003d0 f6 e8 2f bd a7 fb 81 be 5b a6 59 bf 45 1a cd be
       -0.04294678 -0.25387308 -0.85019463 -0.40059105
0003e0 da 22 f8 3e 39 0a 48 3f af ce 1f bf 36 92 12 3e
       0.4846409 0.781406 -0.6242475 0.14313588
0003f0 45 23 a0 3f ea ad be be 07 0e cb be 4a dc 3d bf
       1.2510763 -0.3724206 -0.3965914 -0.7416426

map_net_hid.0.bias f4 [20]
000000 64 40 17 bf 0d f9 6c 3e ed 55 bf be b8 01 55 bd
       -0.5908263 0.2314188 -0.37370244 -0.052003592
000010 65 7b 3d bb 7e e0 fb 3d 54 5a db 3e 76 f8 a6 3e
       -0.002891266 0.12298678 0.42842352 0.32611436
000020 19 57 a0 be c8 ad 97 bf 80 7e 3b be 22 79 e5 3c
       -0.3131645 -1.1849909 -0.18309975 0.028011862
000030 91 18 c2 be 18 07 bf 3e 7e ae 89 3f ed 23 0b 3f
       -0.37909368 0.373101 1.0756376 0.54351693
000040 1b 8a 13 bf 92 e4 d1 bf 38 be 3a bd 2d f9 8c bd
       -0.5763261 -1.6397879 -0.045591563 -0.06883464

map_net_out.weight f4 [3, 20]
000000 23 40 0f 3f 8b 0a a2 be 9e a0 c0 be 30 7e 61 3f
       0.5595724 -0.3164867 -0.3762254 0.8808317
000010 e2 5b 7c bf cf 24 4f 3f 88 da 53 bf 1e d9 8c 3c
       -0.985777 0.8091554 -0.8275533 0.017193373
000020 fb bb f3 3e 99 d3 b4 3e fc ab a1 3e 12 18 be 3f
       0.47604355 0.35317686 0.31576526 1.4851096
000030 c6 d0 5c be 3a 65 57 3e 09 49 10 bf 1c 29 99 bf
       -0.21564016 0.21034709 -0.5636144 -1.196567
000040 a7 b4 34 3f 89 86 94 3e dd 6b 8a bf 7c 62 2a 3f
       0.70588154 0.29008892 -1.0814167 0.66556525
000050 ff 09 98 3e 03 f8 85 bf 2c 39 9c 3f 38 db 93 3e
       0.29695126 -1.0466312 1.2204947 0.28878188
000060 d3 e5 69 3f 1d 0d 97 3f 75 f9 11 bf d6 a9 29 bf
       0.9136631 1.1800877 -0.57021266 -0.66274774
000070 9a 6a 1a 3e 3f 66 38 3e 1c ff 97 bf 05 cd 67 3e
       0.15079728 0.18007754 -1.1874728 0.22636802
000080 a2 4b 6d 3e 8c cf aa 3f 91 36 58 3f 85 87 15 3e
       0.23173383 1.3344588 0.8445826 0.14602478
000090 b7 f6 fc 3d 60 4a 5a 3f 4a 38 51 3f 96 55 22 bf
       0.123517446 0.8526974 0.81726515 -0.63411844
0000a0 70 bc 47 3f f4 c1 5a 3f 0d c8 56 bf 68 f3 2a 3b
       0.7802191 0.854522 -0.83899003 0.0026085023
0000b0 9e 9d aa 3c 9f e9 c9 3d 9b a0 f0 3e da e8 a8 be
       0.02082711 0.09859013 0.46997532 -0.32990152
0000c0 f0 bd 27 3f 80 f5 a5 be 2c 94 b3 3d 55 7e 13 3f
       0.65524197 -0.32413864 0.08768496 0.5761464
0000d0 08 10 51 bf 83 3a f5 3d 9e fb 4a bd c5 32 4c bd
       -0.81665087 0.11974051 -0.049556367 -0.049853105
0000e0 41 e6 03 3f 2b 89 a5 3d 90 55 2e bd d2 af 5f bf
       0.51523215 0.08082803 -0.042562068 -0.87377656

map_net_out.bias f4 [3]
000000 ae 2f 29 3f 9f db 3c 3f cf 90 1f be
       0.6608838 0.73772615 -0.15582584
