saved_models/3R/map_net.pth (torch, 4247 bytes, 6 tensors)

map_net_in.weight f4 [20, 3]
0	0x3f2c3574	0.67269063
1	0x3e8e8e50	0.2784295
2	0xbe6469a9	-0.22305931
3	0x3de395e9	0.111125775
4	0xbe51077c	-0.20413011
5	0xbe33a0a0	-0.17541742
6	0x3e898e13	0.26866207
7	0x3ed09656	0.40739697
8	0xbe02f824	-0.1278997
9	0x3eb306b7	0.3496606
10	0x3ee825fc	0.4534148
11	0x3e2c56a5	0.16829927
12	0x3f2a258c	0.6646354
13	0x3f1e4226	0.61819685
14	0x3f38f472	0.72247994
15	0xbdc8eb9e	-0.098105654
16	0x3e40e5a8	0.18837607
17	0x3e434a0c	0.19071215
18	0xbf1b41c8	-0.6064725
19	0x3ca622be	0.020280238
20	0xbc70e7db	-0.014703716
21	0x3f1d0d66	0.6134857
22	0xbe0b096c	-0.13577813
23	0x3df8d68e	0.12150298
24	0x3edd2126	0.43189353
25	0x3f15473d	0.58311826
26	0xbe00afa6	-0.12567005
27	0xbec6a997	-0.38801262
28	0xbe9204bd	-0.2851924
29	0xbd5bcdc7	-0.05366304
30	0xbef318d0	-0.47479868
31	0xbed8d11e	-0.42347044
32	0xbefcf881	-0.49408343
33	0x3ecfa13f	0.40552709
34	0x3ed261d9	0.41090277
35	0x3f02bafd	0.5106657
36	0x3ed88e71	0.42296174
37	0x3e89990f	0.26874587
38	0x3efc998f	0.49335906
39	0xbe9d009c	-0.30664527
40	0xbed8c30e	-0.42336315
41	0xbeabe116	-0.33570164
42	0xbe8c7655	-0.2743403
43	0xbec11bb3	-0.37716445
44	0x3ce4e1d6	0.027939718
45	0xbebccc69	-0.36874703
46	0xbd90dfde	-0.07073949
47	0xbdacc44d	-0.08435879
48	0x3f065cd3	0.5248539
49	0x3f0d6e67	0.55246586
50	0xbc0177a3	-0.007902059
51	0x3eddd362	0.43325335
52	0x3eb3bfd2	0.35107285
53	0x3f0acf40	0.5422249
54	0xbf0dd584	-0.55403924
55	0x3d1a081f	0.0376054
56	0xbd0a0239	-0.033693526
57	0x3f0758ec	0.5287006
58	0x3f0735fc	0.5281675
59	0x3ef52cdd	0.4788579

map_net_in.bias f4 [20]
0	0xbe9ba8d6	-0.3040225
1	0xbf6a002a	-0.914065
2	0x3f06aa31	0.5260344
3	0x3fa3aa96	1.2786434
4	0x3dbbd62b	0.09171709
5	0xbf25d032	-0.64770806
6	0x3f638775	0.88878566
7	0x3fa8079e	1.3127325
8	0xbf6379a6	-0.88857496
9	0x3f0f69b6	0.5602068
10	0xbfe19285	-1.7622839
11	0xbf618074	-0.8808663
12	0xbfa81d16	-1.3133876
13	0x3e70357d	0.23457904
14	0x3f948b3c	1.1604991
15	0x3f9f0560	1.2423515
16	0x3f7c90cd	0.9865845
17	0x3f5cac1f	0.86200136
18	0xbe009f06	-0.12560663
19	0x3f29e5bf	0.6636619

map_net_hid.0.weight f4 [20, 20]
0	0x3e3bf537	0.18355261
1	0xbf1c5172	-0.61061776
2	0xbd762ef8	-0.060103387
3	0xbe6d9ca4	-0.23204285
4	0xbc87eb16	-0.01659159
5	0x3e2bd11c	0.16778988
6	0x3c0e9a8a	0.008703837
7	0x3ef5f801	0.48040774
8	0xbd92404c	-0.0714117
9	0xbda573c7	-0.080787234
10	0xbe1f5c0d	-0.15562458
11	0xbe7712b2	-0.24128225
12	0x3d67088c	0.056404635
13	0x3e45d503	0.19319539
14	0xbdf0e6ca	-0.117627695
15	0x3c1d3925	0.009596144
16	0xbd59821a	-0.05310259
17	0x3e233e2a	0.15941682
18	0x3cddb5e4	0.027064271
19	0x3e951a68	0.2912171
20	0xbcd5818c	-0.02606275
21	0xbed467d1	-0.41485456
22	0xbe229eaa	-0.15880838
23	0x3df2a3d7	0.11847656
24	0xbd09a244	-0.033602014
25	0x3e62647e	0.22108647
26	0xbec1c77b	-0.37847504
27	0xbef72c08	-0.4827578
28	0x3ddedca9	0.10881931
29	0x3e7995d1	0.24373557
30	0xbe5333ee	-0.20625278
31	0x3da34a9e	0.079732165
32	0xbd33897d	-0.04383229
33	0xbe4a61c0	-0.19763851
34	0x3e4a2bd5	0.19743283
35	0x3e712cb8	0.23552215
36	0xbe9ed214	-0.31019652
37	0xbe7fd8b2	-0.24985006
38	0xbeda753f	-0.42667577
39	0xbea3001d	-0.31836024
40	0xbdb7dcf1	-0.08977688
41	0xbf14cb69	-0.5812288
42	0xbe8b1504	-0.2716447
43	0xbeca48c4	-0.3950864
44	0x3e0f3363	0.13984446
45	0x3f11bde2	0.56930363
46	0x3e0e74cd	0.13911743
47	0x3d17a2bc	0.03702043
48	0xbd1f9ad2	-0.038966008
49	0x3d1f4651	0.03888542
50	0x3dcdcde3	0.100490354
51	0xbdebf499	-0.11521263
52	0x3dcfa7e4	0.101394445
53	0x3e55701f	0.20843552
54	0xbef13ce3	-0.47116765
55	0xbe881625	-0.26579395
56	0x3d8b0a30	0.067890525
57	0xbea66aae	-0.32503265
58	0xbeee3431	-0.46524194
59	0x3e1a4541	0.15065481
60	0x3e190781	0.14944269
61	0xbed8c460	-0.42337322
62	0x3dbb5ec4	0.091489345
63	0xbedb6c36	-0.42855996
64	0xbe4531c3	-0.19257264
65	0xbe93caf6	-0.28865784
66	0x3dfd2453	0.12360444
67	0x3f022c4d	0.5084885
68	0xbd0ad362	-0.033892997
69	0x3dddb7a5	0.10826043
70	0x3e1c5dca	0.15270153
71	0xbe0d7081	-0.13812448
72	0xbd3a6575	-0.045506913
73	0x3e6d11f6	0.23151383
74	0xbf1702e5	-0.5898879
75	0xbe0a2d24	-0.13493782
76	0x3f0824d0	0.5318117
77	0xbe712d29	-0.23552383
78	0xbe86415a	-0.26221734
79	0x3e87d93a	0.26532918
80	0xbea0ce52	-0.3140741
81	0xbe917653	-0.28410587
82	0x3e175898	0.1477989
83	0x3bc3eb41	0.005978972
84	0xbe33db6a	-0.17564169
85	0x3e065fc6	0.13122472
86	0x3e037118	0.1283611
87	0x3f2f30a6	0.68433607
88	0xbe4caaa8	-0.19986975
89	0xbf00196f	-0.5003881
90	0x3ee4bab9	0.44673708
91	0xbdf99e23	-0.12188365
92	0x3ed37892	0.41302925
93	0x3e8d996a	0.27656108
94	0xbf3dec3d	-0.74188596
95	0xbf37836e	-0.7168492
96	0x3e0dcefa	0.13848487
97	0xbeeee0c0	-0.46655846
98	0xbed1bbcd	-0.40963593
99	0xbeab83bc	-0.33498943
100	0xbd366cf5	-0.044537503
101	0xbf065610	-0.5247507
102	0x3dbd0bfa	0.092308
103	0xbede8941	-0.4346409
104	0x3dde2e2c	0.1084865
105	0x3f407998	0.7518554
106	0x3e9be4f9	0.3044813
107	0xbeb51372	-0.35366398
108	0x3de87f32	0.113523856
109	0xbcd9e4c5	-0.026598344
110	0x3ef4310b	0.47693667
111	0xbe308d5e	-0.17241427
112	0x3c927b29	0.017880993
113	0x3ed26ddd	0.41099444
114	0xbe107893	-0.14108495
115	0x3d75c235	0.059999663
116	0x3eda1c47	0.425997
117	0xbdd98ba9	-0.10622341
118	0x3d42d080	0.047562122
119	0x3d65ca44	0.0561011
120	0x3eb2fd61	0.34958938
121	0xbe9c9b49	-0.30587223
122	0xbd1c5ef7	-0.038176503
123	0x3c0bb5b4	0.008527208
124	0x3e2f5d85	0.17125519
125	0x3ee9610f	0.45581862
126	0xbd07ea17	-0.03318223
127	0x3d8b90fc	0.06814763
128	0xbddfade1	-0.10921837
129	0xbdee2477	-0.11628049
130	0xbee65aca	-0.44991142
131	0x3e7c6877	0.24649225
132	0xbe053a17	-0.13010441
133	0xbe3470e5	-0.17621191
134	0x3eaf125f	0.34193704
135	0x3d755211	0.059892718
136	0x3e71f54f	0.23628734
137	0x3efb4d89	0.49082592
138	0x3c4ee3c1	0.012627543
139	0x3df502a4	0.11963394
140	0xbd6c099c	-0.05762635
141	0xbe290203	-0.16504674
142	0xbdef5f77	-0.1168813
143	0x3d23b5e3	0.039968383
144	0x3ea02f3a	0.3128603
145	0x3e977d23	0.2958766
146	0x3dcf73ea	0.10129531
147	0x3e32aa96	0.17447886
148	0xbefb36ef	-0.49065349
149	0x3e7eae22	0.24871114
150	0x3e7df5a0	0.2480073
151	0xbed15fa3	-0.40893278
152	0x3e76b558	0.24092615
153	0x3e9afc12	0.3027044
154	0x3f6cb9d2	0.9247104
155	0x3e783827	0.2424017
156	0x3e7a6a1d	0.24454542
157	0x3d086428	0.03329864
158	0xbe1bbda6	-0.15209064
159	0x3e938633	0.28813323
160	0xbea3044b	-0.31839213
161	0x3ca11db5	0.019667486
162	0x3d90303c	0.0704045
163	0x3de1017e	0.10986613
164	0xb981b6b3	-0.0002474092
165	0xbd310d59	-0.04322562
166	0x3d398701	0.045294765
167	0x3ebd181a	0.3693245
168	0xbecbb8cf	-0.39789435
169	0xbc8655a9	-0.016398268
170	0x3dcff359	0.10153837
171	0xbec61c6d	-0.38693562
172	0x3d4c7066	0.04991188
173	0x3e81b2bd	0.2533168
174	0xbeec03b2	-0.4609657
175	0xbeb39626	-0.35075492
176	0x3c4e19a8	0.012579359
177	0x3ea455d7	0.3209674
178	0x3d31a5bb	0.043370944
179	0x3e81e244	0.2536794
180	0xbe907722	-0.2821589
181	0xbe9ec87c	-0.31012332
182	0x3da84e23	0.082180284
183	0x3f83730a	1.0269482
184	0x3e3295e0	0.17439985
185	0x3e753084	0.23944288
186	0x3e567f20	0.20946932
187	0x3eeff710	0.4686818
188	0xbe795490	-0.24348664
189	0x3ec36127	0.3816006
190	0xbf1e8ab6	-0.61930406
191	0xbe39dd0d	-0.1815073
192	0x3dc0045f	0.09375834
193	0x3d8f2869	0.069901295
194	0xbe801ece	-0.25023502
195	0x3eaf7817	0.3427131
196	0xbe507e1a	-0.20360604
197	0x3ca051f1	0.019570323
198	0xbf266ad8	-0.6500678
199	0xbe956377	-0.29177448
200	0xbf0c51c2	-0.5481225
201	0x3c70e9de	0.014704196
202	0x3e98ccc5	0.29843727
203	0x3eab91ec	0.33509767
204	0xbea89056	-0.3292262
205	0xbe2c50e5	-0.16827734
206	0x3e7a5708	0.24447262
207	0xbd906264	-0.070500165
208	0xbd5a1167	-0.053239252
209	0xbee0f67b	-0.4393805
210	0xbea9c7cd	-0.33160248
211	0xbec44dec	-0.383407
212	0xbd87ddc6	-0.06634097
213	0xbde84131	-0.11340559
214	0x3dd3ee17	0.103481464
215	0x3e0404ff	0.12892531
216	0x3ecdd00a	0.40197784
217	0x3e8507c5	0.2598249
218	0xbf493c65	-0.7860778
219	0x3d8e3348	0.06943375
220	0xbe83e20b	-0.25758395
221	0x3e939d91	0.2883115
222	0x3d48bd6d	0.049008776
223	0x3e22f3f0	0.15913367
224	0xbe2efd00	-0.170887
225	0xbdca2433	-0.09870186
226	0x3e8100d2	0.25195938
227	0x3f03375c	0.51256347
228	0xbe013e3c	-0.12621397
229	0xbe77aad2	-0.24186257
230	0xbcb1d601	-0.02170849
231	0xbd5fab37	-0.054606643
232	0xbe596a80	-0.21232033
233	0xbe1257dd	-0.1429133
234	0x3e4bcfba	0.1990346
235	0xbdac1cf6	-0.08403961
236	0x3eead63b	0.4586657
237	0x3ef1dc1c	0.47238243
238	0x3f3c776c	0.73619723
239	0x3ea0ac5a	0.31381494
240	0xbbefb7af	-0.007315598
241	0xbe891145	-0.26770988
242	0xbd115f8a	-0.035491504
243	0x3f1f5039	0.62231785
244	0x3d8407b7	0.06446784
245	0x3dec07d4	0.115249306
246	0x3e84921c	0.25892723
247	0xbf475c87	-0.7787556
248	0xbe4ac540	-0.19801807
249	0x3ed02385	0.406521
250	0xbf19ae58	-0.6003165
251	0x3dedccf7	0.116113596
252	0xbf028134	-0.509784
253	0xbdb07bec	-0.08617386
254	0x3eb63e5b	0.35594448
255	0x3e9b9015	0.30383363

map_net_hid.0.bias f4 [20]
0	0x3ea8d704	0.32976544
1	0x3d265955	0.040612537
2	0x3e3be7a3	0.18350081
3	0xbd16841b	-0.03674708
4	0xbe1a17cc	-0.1504814
5	0xbed59b30	-0.4171996
6	0x3ea38be7	0.31942675
7	0xbc6ded1d	-0.014521864
8	0xbe83b1f2	-0.257217
9	0xbd521fe7	-0.051299956
10	0xbe7d2f6b	-0.2472512
11	0x3d8299b2	0.06376971
12	0xbe4f1236	-0.2022179
13	0xbe330d73	-0.17485599
14	0x3e2af381	0.16694452
15	0x3eb8d9af	0.3610358
16	0x3e27e04f	0.1639416
17	0xbe22af01	-0.15887071
18	0x3cdc0b9a	0.026861
19	0xbc56e175	-0.013115277

map_net_out.weight f4 [2, 20]
0	0x3ee3c9fd	0.44490042
1	0xbeefab21	-0.46810248
2	0x3f537dbe	0.8261374
3	0x3f0c0839	0.54700047
4	0x3e93dde7	0.28880236
5	0x3f51c3bd	0.819393
6	0x3f09c764	0.5381987
7	0x3eb7305f	0.35779092
8	0x3e730c6a	0.23735204
9	0xbea04b7c	-0.3130759
10	0x3e9ef91c	0.3104943
11	0x3d10d9d5	0.03536399
12	0xbeced88c	-0.40399587
13	0xbdf5e986	-0.12007432
14	0x3d84a650	0.06477034
15	0x3f2a0d7b	0.6642682
16	0x3e49a7b7	0.19692884
17	0x3e8a02b6	0.26955193
18	0x3f57c136	0.8427919
19	0x3e966145	0.29371086
20	0xbd48f51b	-0.049061876
21	0x3f37748f	0.7166223
22	0x3f98c326	1.1934555
23	0x3dca543c	0.09879348
24	0x3efad79b	0.4899262
25	0x3d807ffc	0.06274411
26	0x3db13fb5	0.08654729
27	0x3eeb1d47	0.45920774
28	0x3e34e144	0.17664057
29	0x3f09bca2	0.53803456
30	0xbeda03ed	-0.4258112
31	0xbf3fbe9a	-0.7490021
32	0x3ebfb484	0.3744241
33	0x3ef49dfa	0.47776777
34	0xbf125f03	-0.57176226
35	0xbcdab605	-0.026698122
36	0x3f0fe9ed	0.5621632
37	0xbeba8b85	-0.3643457
38	0x3ee7eeb0	0.45299292
39	0xbec726dc	-0.38896835

map_net_out.bias f4 [2]
0	0x3db0172f	0.08598172
1	0x3db13c99	0.08654136
