saved_models/Kuka/bilinear/2D/map_net.pth (torch, 779357 bytes, 18 tensors)

weight f4 [20, 3]
0	0x3eafb0e7	0.34314653
1	0x3f455681	0.7708512
2	0xbe96f919	-0.2948692
3	0xbe649899	-0.22323836
4	0xbe8d33a0	-0.2757845
5	0x3e3a05c4	0.18166262
6	0x3e182186	0.14856538
7	0x3ea066dd	0.31328478
8	0x3de6997b	0.11259743
9	0x3ef63cda	0.480933
10	0x3ed26cd3	0.4109865
11	0x3e637d00	0.22215652
12	0xbd68c071	-0.05682415
13	0xbc29b318	-0.010357641
14	0x3f01b83b	0.5067174
15	0xbf0985b2	-0.5371963
16	0x3f1189ad	0.568507
17	0x3dcdd22e	0.10049854
18	0x3efe4cc4	0.49667943
19	0xbf31c6ac	-0.69443774
20	0xbe5fd37f	-0.21858023
21	0xbf0c87b5	-0.5489457
22	0xbe532b60	-0.20622015
23	0x3d42da03	0.047571193
24	0x3e521497	0.20515667
25	0x3ea9d954	0.3317362
26	0x3fa7e3a5	1.3116347
27	0xbe92a973	-0.28644904
28	0x3e673739	0.2257966
29	0xbf03f72f	-0.5154905
30	0xbea6dcca	-0.32590324
31	0x3e86483b	0.26226982
32	0x3d92dc8b	0.071709715
33	0xbe07644d	-0.13221855
34	0xbdf18cf0	-0.1179446
35	0xbe2e65e2	-0.17031053
36	0x3ecd0394	0.40041792
37	0xbe388094	-0.18017799
38	0xbe3bda9c	-0.18345112
39	0xbf0eb263	-0.55740947
40	0x3db150e8	0.0865801
41	0x3d161901	0.03664494
42	0x3e677cd7	0.22606216
43	0xbe5c9ca1	-0.21544124
44	0x3ddafdff	0.10692977
45	0xbf1aab9a	-0.60418093
46	0x3f2a7b80	0.66594696
47	0xbdebe068	-0.115174115
48	0xbed47ca4	-0.41501343
49	0x3f3153c7	0.6926846
50	0x3f11216b	0.56691617
51	0xbec1ffa7	-0.3789036
52	0x3eee90c8	0.46594834
53	0xbf0c26dc	-0.54746795
54	0x3f641d57	0.8910727
55	0x3e216557	0.15761314
56	0x3e14bb5b	0.14524595
57	0xbf6abb76	-0.9169229
58	0x3ecb418d	0.3969845
59	0xbe8cf0fd	-0.2752761

bias f4 [20]
0	0xbd8586ee	-0.065198764
1	0xbef5ba4e	-0.47993702
2	0x3ea3fd4f	0.32029197
3	0x3d12fac8	0.035883695
4	0x3f287935	0.6580995
5	0x3e682b0a	0.22672668
6	0x3d5f2775	0.05448099
7	0xbf1cf926	-0.6131767
8	0xbe65634e	-0.22401163
9	0xbe83579e	-0.25652784
10	0x3f191c70	0.5980902
11	0x3e84428a	0.25832015
12	0xbf45cbf5	-0.7726434
13	0xbf51e2e4	-0.8198683
14	0x3e636b05	0.22208793
15	0x3f1edfb8	0.6206012
16	0xbeab5150	-0.33460474
17	0xbe7ee7f1	-0.24893166
18	0xbe37752c	-0.17915791
19	0x3f915821	1.135502

weight f4 [20, 20]
0	0xbe64ff86	-0.223631
1	0xbe23f35a	-0.160108
2	0xbccbde02	-0.024886135
3	0x3e0420d5	0.1290315
4	0xbd6d9b41	-0.05800939
5	0xbdc45650	-0.09586775
6	0xbe67bd4b	-0.22630803
7	0xbd72c1d2	-0.059266873
8	0xbe3a64c2	-0.18202499
9	0x3d865011	0.0655824
10	0xbd5dec19	-0.05418024
11	0x3d88e428	0.06684142
12	0xbd8bdb20	-0.06828904
13	0xbde4e3fd	-0.11176298
14	0xbe0ad960	-0.13559484
15	0x3be81eb1	0.007083737
16	0x3cb6f467	0.022333337
17	0xbd2e3b64	-0.042537108
18	0xbd4e7c4e	-0.050411515
19	0xbc63f920	-0.0139143765
20	0x3d6e7124	0.058213368
21	0x3e30a689	0.17251028
22	0xbe661124	-0.22467476
23	0x3ca69dd7	0.020338936
24	0xbe357ffb	-0.17724602
25	0xbc8337ea	-0.016017873
26	0xbef7d410	-0.48403978
27	0xbc87db16	-0.01658396
28	0x3df1ad4a	0.118006304
29	0x3f236624	0.6382773
30	0xbd97a6f4	-0.07404891
31	0x3e52d7b4	0.20590097
32	0x3e17fef6	0.14843354
33	0x3e18505b	0.14874403
34	0xbc14f053	-0.009090501
35	0xbd89a2a3	-0.067204736
36	0x3f130435	0.57428294
37	0x3f08b3b4	0.53399205
38	0x3e8993b0	0.2687049
39	0xbe26489f	-0.1623864
40	0x3e488787	0.1958295
41	0x3ea616a6	0.32439154
42	0xbe69807c	-0.22802919
43	0xbe5250bb	-0.20538609
44	0xbe809454	-0.25113165
45	0xbe3f98e4	-0.18710667
46	0x3e714722	0.23562291
47	0x3d4656dc	0.04842268
48	0x3e3cb996	0.1843017
49	0xbeb012a0	-0.3438921
50	0xbe65ea71	-0.22452714
51	0x3cc983d0	0.024598986
52	0x3d8c63ab	0.06854948
53	0x3e7dd8db	0.24789755
54	0xbd7a0e31	-0.06104869
55	0xbe9569d0	-0.2918229
56	0xbe4cd70c	-0.20003909
57	0xbeddbdf3	-0.43308982
58	0xbcbbdde2	-0.02293295
59	0xbe90abd9	-0.2825611
60	0xbe0d3c09	-0.13792433
61	0xbeb4d56d	-0.3531908
62	0x3e57d10f	0.21075843
63	0x3e1ebc46	0.15501508
64	0x3e0d1abc	0.1377973
65	0x3e4a0e63	0.1973205
66	0xbd874b62	-0.06606175
67	0xbdd8ad8d	-0.10579977
68	0xbd94e794	-0.072707325
69	0x3bb3af37	0.0054835337
70	0xbce5a1da	-0.028031278
71	0xbcf05440	-0.029337049
72	0x3e8656d7	0.2623813
73	0x3dbcf663	0.09226682
74	0x3e4e97bc	0.2017507
75	0xbe16f791	-0.14742877
76	0xbc9aec29	-0.018911438
77	0x3e65c910	0.2243998
78	0x3e796be7	0.24357568
79	0xbe818125	-0.25293842
80	0xbd267ad9	-0.0406445
81	0xbe6eab7c	-0.23307604
82	0x3dfbcb62	0.122946516
83	0x3da9710f	0.08273517
84	0x3ec79b7f	0.38985822
85	0x3e530ca9	0.20610298
86	0xbe021f9d	-0.12707372
87	0xbd9eb7b6	-0.07749884
88	0xbdaf573b	-0.0856156
89	0x3e913d51	0.28367093
90	0x3eacb2e9	0.33730248
91	0xbe07c7bc	-0.13259786
92	0xbecba3b8	-0.39773345
93	0x3d512ad9	0.051066253
94	0xbe6d71fa	-0.2318801
95	0x3ef04b11	0.4693227
96	0xbe3fac41	-0.18718053
97	0x3df8b77c	0.12144372
98	0xbd8dd671	-0.06925667
99	0x3e9ccb57	0.30623886
100	0xbdecf322	-0.115698114
101	0x3c7da10a	0.015480289
102	0x3dd2f036	0.10299723
103	0xbe7293eb	-0.23689239
104	0x3e5a7156	0.21332297
105	0xbdaccf30	-0.084379554
106	0xbe798a4d	-0.24369164
107	0xbdfdbc83	-0.123894714
108	0x3d08e001	0.03341675
109	0x3e3a35dd	0.1818461
110	0x3d033a9a	0.03203831
111	0x3e11d408	0.1424104
112	0xbe0f5ca7	-0.14000188
113	0x3e6bd78b	0.23031442
114	0x3e758790	0.23977494
115	0xbe27d503	-0.16389851
116	0xbe25746f	-0.16157697
117	0xbc54f84a	-0.01299865
118	0x3dd6dbc3	0.10491135
119	0xbe06ae86	-0.13152513
120	0xbdc8dfd5	-0.098083176
121	0x3e38ce32	0.18047407
122	0x3d2d79cb	0.04235248
123	0x3e7f2d70	0.24919677
124	0x3c6c43fd	0.014420507
125	0x3dd3225e	0.103092894
126	0x3d838f1e	0.06423782
127	0xbe1a3649	-0.1505977
128	0x3c9905cc	0.018679522
129	0xbd9db736	-0.0770096
130	0xbeb17ddc	-0.34666336
131	0xbd8b6fac	-0.06808409
132	0x3dc7f088	0.097626746
133	0xbeb30dc9	-0.34971455
134	0x3e58b87c	0.21164125
135	0x3d9d15eb	0.07670196
136	0x3e14eb39	0.14542855
137	0x3e0b97b5	0.1363209
138	0xbdaeef79	-0.085417695
139	0xbcef75c9	-0.029230969
140	0x3d405a55	0.046961147
141	0x3ee13eb8	0.43993163
142	0x3e2a93af	0.166579
143	0xbd1ebfc3	-0.038757097
144	0x3ce5d8dc	0.028057508
145	0x3b914a3d	0.0044338987
146	0xbe82b673	-0.25529823
147	0x3e8bfa58	0.27339435
148	0x3db213a5	0.08695153
149	0x3d387704	0.045035377
150	0xbef1e35f	-0.47243783
151	0xbb337d61	-0.0027387964
152	0x3ebe5f8a	0.37182266
153	0xbe94b3bb	-0.29043373
154	0x3eaeee41	0.34166148
155	0x3e468a6d	0.19388743
156	0x3e982abd	0.29720107
157	0x3e382e69	0.17986454
158	0xbe60db9c	-0.21958774
159	0xbeeca748	-0.46221375
160	0xbea8b9fe	-0.329544
161	0xbeaa3818	-0.3324592
162	0x3ebafc1c	0.3652047
163	0xbd0b3fc1	-0.033996347
164	0x3ee86b84	0.45394528
165	0x3edc1528	0.4298489
166	0xbe1c822c	-0.15284032
167	0xbdadb2ed	-0.08481393
168	0xbde350da	-0.110994056
169	0x3dc3007b	0.09521576
170	0x3ed6f360	0.41982555
171	0xbd2abbe3	-0.04168309
172	0xbd3069eb	-0.04306976
173	0x3e50e692	0.20400456
174	0x3a0114a6	0.00049240363
175	0x3da06eb3	0.07833614
176	0x3d72227c	0.059114918
177	0x3ddf64e5	0.10907916
178	0xbeb13c61	-0.34616378
179	0x3eaf9764	0.3429519
180	0x3dec0542	0.1152444
181	0x3ee870e6	0.45398635
182	0x3d961752	0.07328667
183	0xbe0ef679	-0.1396121
184	0xbe3e55fc	-0.18587488
185	0x3e70790b	0.23483674
186	0xbdd30f77	-0.10305684
187	0x3edc02cd	0.42970887
188	0x3e5e49b5	0.21707805
189	0x3e099a5b	0.13437788
190	0x3cceb5dd	0.025233204
191	0x3e591f46	0.21203336
192	0xbe204875	-0.1565264
193	0x3f231658	0.6370597
194	0xbdb423ac	-0.08795866
195	0xbe754413	-0.2395175
196	0xbd19d19e	-0.037553422
197	0x3e8625a1	0.26200584
198	0xbe08772a	-0.13326707
199	0xbd70ac73	-0.05875821
200	0x3e48c7c4	0.19607455
201	0x3ce337cd	0.027736569
202	0xbe022f5c	-0.12713379
203	0x3ab6c047	0.0013942801
204	0x3dd4ef9f	0.103972666
205	0xbe10fccc	-0.14158934
206	0x3d97b311	0.07407201
207	0xbeabce96	-0.3355605
208	0x3ce5c9c8	0.028050318
209	0x3da07fe1	0.07836891
210	0x3dbb701c	0.091522425
211	0xbd2b4286	-0.04181149
212	0xbe52cb82	-0.20585445
213	0x3e9ccf7a	0.30627042
214	0x3ddfddc8	0.10930973
215	0xbe0ca51f	-0.13734864
216	0xbcb0b626	-0.02157123
217	0x3d082093	0.03323419
218	0x3e5c78ac	0.21530408
219	0x3e161f1d	0.14660306
220	0x3e5b1bf7	0.21397386
221	0xbd3bf331	-0.045886222
222	0x3e892a09	0.26789883
223	0x3eb6e0b4	0.3571831
224	0xbe49e5f2	-0.19716623
225	0xbdbf5158	-0.09341687
226	0x3e8b8d93	0.2725645
227	0xbe037df8	-0.12841022
228	0x3c87f80d	0.016597772
229	0xbe835732	-0.25652462
230	0xbe0a1226	-0.13483486
231	0xbd8966cc	-0.0670906
232	0xbda40e0d	-0.080104925
233	0xbdf29ef6	-0.11846726
234	0xbe9ab9e7	-0.30219957
235	0x3e66153b	0.22469036
236	0x3d4d56ed	0.050131727
237	0x3d465cac	0.048428223
238	0xbe37f1b9	-0.17963304
239	0x3e3a391e	0.18185851
240	0xbdf76553	-0.12079873
241	0xbdde3405	-0.10849766
242	0x3e2f04f3	0.17091732
243	0xbd1cd62a	-0.03829018
244	0xbd85e6e0	-0.065381765
245	0xbd08d6fa	-0.033408143
246	0x3e543327	0.20722638
247	0x3e0b6683	0.13613324
248	0xbd2e5f64	-0.04257144
249	0xbd460e4b	-0.048353475
250	0x3dcd212e	0.10016094
251	0xbdcd175f	-0.10014223
252	0x3dca0320	0.09863877
253	0xbf4b9043	-0.79517
254	0x3e0da85d	0.13833757
255	0x3e412fb1	0.18865849

bias f4 [20]
0	0x3e13c1ed	0.14429446
1	0xbe6ea3a1	-0.23304607
2	0x3d49e0a7	0.04928651
3	0xbe22c5e0	-0.15895796
4	0x3e7306f9	0.23733129
5	0xbdef0b7a	-0.11672111
6	0x3d843597	0.06455534
7	0x3da40bc4	0.080100566
8	0xbdf20eb7	-0.11819213
9	0xbd834845	-0.06410269
10	0x3dd48892	0.10377611
11	0xbe558e9e	-0.20855185
12	0x3e0cd85b	0.13754408
13	0xbd8ff730	-0.07029569
14	0xbe53ce0e	-0.20684072
15	0x3b94c5ac	0.004540166
16	0x3c021a37	0.00794082
17	0xbdf3b366	-0.11899452
18	0xbdd27ea7	-0.10278063
19	0xbde4b908	-0.111681044

weight f4 [3, 20]
0	0xbcbb4543	-0.022860175
1	0x3eb2518e	0.34827846
2	0x3e009b88	0.1255933
3	0xbde0956c	-0.10966
4	0x3e00f267	0.12592469
5	0xbc72f934	-0.0148299225
6	0xbe1c9706	-0.15291986
7	0xbf168e35	-0.5881074
8	0xbe897e9c	-0.26854408
9	0xbe844501	-0.25833896
10	0x3eac6c9e	0.33676618
11	0x3d1288c2	0.035774954
12	0xbeb1c1c0	-0.34718132
13	0xbdc5a4d2	-0.096505776
14	0xbea0f6a8	-0.31438184
15	0x3e6b7f85	0.22997864
16	0xbe7c05bd	-0.24611564
17	0x3f363665	0.7117675
18	0x3ed4e6e8	0.41582417
19	0x3c158613	0.009126204
20	0x3e1571df	0.1459422
21	0x3b5e651d	0.003393478
22	0xbce0ee1f	-0.027457295
23	0xbd002552	-0.03128559
24	0x3d142c07	0.0361748
25	0xbe2f2b2c	-0.17106313
26	0x3dcff0c1	0.10153342
27	0xbd48b7f8	-0.04900357
28	0x3a1359b6	0.0005620973
29	0x3c1f7652	0.0097328
30	0x3de4acb5	0.11165754
31	0xbe07131d	-0.13190885
32	0xbd1532a9	-0.036425266
33	0x3b7551ec	0.0037432862
34	0x3c20db19	0.009817862
35	0x3ddac809	0.10682685
36	0x3d3f60f7	0.046723332
37	0xbd8723f7	-0.065986566
38	0xbd38e6aa	-0.045141853
39	0x3bdd160d	0.0067470134
40	0xbd4fc2e5	-0.050722975
41	0xbf037fe1	-0.51367
42	0x3e63d439	0.22248925
43	0xbe1ad90d	-0.15121861
44	0x3e47b64a	0.19503132
45	0xbdd0e9d0	-0.10200846
46	0x3e9006fd	0.28130332
47	0x3e1f6616	0.15566286
48	0x3e98d86e	0.29852623
49	0xbe3ca9b2	-0.18424109
50	0xbe2d2c13	-0.16911344
51	0x3f0e9407	0.5569462
52	0x3e2d31f8	0.16913593
53	0x3e760905	0.24026878
54	0xbe700f86	-0.23443422
55	0xbd9ad625	-0.07560376
56	0xbe838d81	-0.25693896
57	0xbd8b91b0	-0.06814897
58	0xbe0cc270	-0.13746047
59	0x3e8d532a	0.27602512

bias f4 [3]
0	0xbc2e4555	-0.010636647
1	0xbdca6afd	-0.09883688
2	0xbc931b0e	-0.017957237

exp_avg f4 [20, 3]
0	0x35538242	7.8793175e-07
1	0xb5333297	-6.6756314e-07
2	0xb557fa14	-8.0457653e-07
3	0xb6c7d658	-5.955615e-06
4	0xb6e3e30e	-6.79156e-06
5	0xb3d83c66	-1.006927e-07
6	0xb6589149	-3.2271075e-06
7	0x371121b7	8.650523e-06
8	0x36ebbff0	7.02589e-06
9	0x3595ad3e	1.1151785e-06
10	0x36d9a8f5	6.486773e-06
11	0x362901a1	2.518391e-06
12	0xb722c4bd	-9.701759e-06
13	0xb656d184	-3.201044e-06
14	0x35d1f21b	1.5642175e-06
15	0xb791f1db	-1.739797e-05
16	0xb77540c1	-1.4618215e-05
17	0x36d98678	6.482758e-06
18	0x379b291a	1.849658e-05
19	0x377d7f39	1.51095965e-05
20	0x36b638c6	5.430632e-06
21	0xb7b48e60	-2.152397e-05
22	0xb7219ef6	-9.633359e-06
23	0x36b6bf02	5.446259e-06
24	0xb56bb165	-8.7802465e-07
25	0xb58c18b4	-1.0438002e-06
26	0xb3f5157a	-1.1412608e-07
27	0xb7a2db2d	-1.9413967e-05
28	0xb7a2374c	-1.9337655e-05
29	0xb6cfe824	-6.1961055e-06
30	0x36e75c2b	6.8950662e-06
31	0xb6395b80	-2.7620408e-06
32	0xb70de9b6	-8.45867e-06
33	0xb669c377	-3.483348e-06
34	0xb6edc4b5	-7.08605e-06
35	0xb64db381	-3.0651865e-06
36	0xb6467a1d	-2.9575378e-06
37	0x36d34b40	6.2970503e-06
38	0x36e2194c	6.73827e-06
39	0x372b30b7	1.0203737e-05
40	0xb687bdb3	-4.0453974e-06
41	0xb713c1b3	-8.806982e-06
42	0xb7939db3	-1.75972e-05
43	0xb767190c	-1.3774505e-05
44	0xb5c1038c	-1.4380653e-06
45	0x3425217d	1.5379005e-07
46	0x37a32499	1.9448156e-05
47	0x378cc7ca	1.6782335e-05
48	0xb5c6fa65	-1.4825024e-06
49	0xb5c86079	-1.4929238e-06
50	0x35362cbd	6.7865386e-07
51	0xb7b4f751	-2.1572838e-05
52	0xb797a9d4	-1.8079685e-05
53	0xb60f674b	-2.1368785e-06
54	0x3613d5bd	2.202912e-06
55	0xb7880ad6	-1.621751e-05
56	0xb7056e7b	-7.953141e-06
57	0x351b77d8	5.7916395e-07
58	0x36110000	2.1606684e-06
59	0xb541a67c	-7.214037e-07

exp_avg_sq f4 [20, 3]
0	0x307b46eb	9.141405e-10
1	0x312160c5	2.348359e-09
2	0x3182a1b9	3.8018837e-09
3	0x3298a6d7	1.7770999e-08
4	0x33b4840c	8.4059224e-08
5	0x32dcbfde	2.5698622e-08
6	0x33c647d5	9.23316e-08
7	0x340f7564	1.3360619e-07
8	0x33d1dbf7	9.772332e-08
9	0x301b3b9a	5.647337e-10
10	0x313379ea	2.6117228e-09
11	0x30a380e9	1.1896449e-09
12	0x3365c641	5.349853e-08
13	0x340d70ca	1.3172681e-07
14	0x3390a7a0	6.736013e-08
15	0x34862069	2.4983026e-07
16	0x34e96382	4.3472033e-07
17	0x34607280	2.090328e-07
18	0x33309ea2	4.112247e-08
19	0x33168668	3.504684e-08
20	0x32c62881	2.3068653e-08
21	0x3484bf39	2.472605e-07
22	0x3531652d	6.608487e-07
23	0x34c49025	3.6612724e-07
24	0x2f15409b	1.3574424e-10
25	0x2eca2e61	9.194135e-11
26	0x2bdbbe1d	1.5613653e-12
27	0x33422f06	4.5211912e-08
28	0x33bf2cc6	8.902275e-08
29	0x330053a2	2.9878386e-08
30	0x33fa0e76	1.16441626e-07
31	0x34d010ff	3.8755385e-07
32	0x3432a1d8	1.663642e-07
33	0x31b4ed2c	5.265653e-09
34	0x31f5195d	7.133322e-09
35	0x3191f3fb	4.247793e-09
36	0x3321316a	3.7530675e-08
37	0x34492c54	1.873571e-07
38	0x33b6aa24	8.505984e-08
39	0x357bfdf9	9.3874365e-07
40	0x359cda30	1.1686407e-06
41	0x351ee948	5.9199056e-07
42	0x3446d26e	1.8516741e-07
43	0x34d03c0f	3.8786717e-07
44	0x34369af6	1.7006445e-07
45	0x343dfe1d	1.7694443e-07
46	0x350d7796	5.2700614e-07
47	0x34532ec1	1.9667915e-07
48	0x3117e683	2.2104423e-09
49	0x2fb3f7da	3.273602e-10
50	0x307bea25	9.164601e-10
51	0x33d9e63c	1.0146729e-07
52	0x348232e2	2.425141e-07
53	0x33b49cd5	8.410431e-08
54	0x313305c9	2.6051217e-09
55	0x3387e0b6	6.327302e-08
56	0x32e12e91	2.6214623e-08
57	0x305061ca	7.5808926e-10
58	0x32f8b634	2.8953856e-08
59	0x31d84a2f	6.294861e-09

exp_avg f4 [20]
0	0xb4eea06f	-4.4447685e-07
1	0x36a6bcab	4.9691494e-06
2	0xb67f7be5	-3.8070077e-06
3	0xb6a1d6b6	-4.8231695e-06
4	0x369a4086	4.597069e-06
5	0x37334539	1.0685349e-05
6	0xb74b770b	-1.212746e-05
7	0x3743f4ec	1.1679931e-05
8	0x355f443d	8.3173273e-07
9	0x3763a3c4	1.3568384e-05
10	0xb5cc7b29	-1.5235029e-06
11	0x369bca8d	4.64294e-06
12	0xb53aee83	-6.963748e-07
13	0xb40080ca	-1.1967782e-07
14	0x37399c0c	1.1063192e-05
15	0xb71622bf	-8.948787e-06
16	0x3592436b	1.0897469e-06
17	0x3749ae81	1.20211635e-05
18	0x3707cb03	8.093894e-06
19	0xb650bcda	-3.1104341e-06

exp_avg_sq f4 [20]
0	0x30d89b28	1.5760167e-09
1	0x32961af7	1.747456e-08
2	0x33778a10	5.7634736e-08
3	0x30e395b7	1.6558975e-09
4	0x3318a8e9	3.554388e-08
5	0x3419124c	1.4255892e-07
6	0x32a7978e	1.9510278e-08
7	0x345e5b4c	2.0708575e-07
8	0x2e7c0484	5.7302177e-11
9	0x32f41b40	2.841773e-08
10	0x33d3b923	9.859129e-08
11	0x31554352	3.1033847e-09
12	0x333f4aa6	4.4538545e-08
13	0x34d6783a	3.9948083e-07
14	0x33f01049	1.1178833e-07
15	0x34141c6d	1.3793915e-07
16	0x3018599b	5.5424615e-10
17	0x338a6e09	6.446141e-08
18	0x32c5e19f	2.3036419e-08
19	0x31d02cbd	6.058683e-09

exp_avg f4 [20, 20]
0	0xb553bd86	-7.887942e-07
1	0xb4bac1b9	-3.4786152e-07
2	0xb4531711	-1.9659298e-07
3	0xb55d51d0	-8.244797e-07
4	0x349f5541	2.9678088e-07
5	0x3427951c	1.5607333e-07
6	0x34b62dcc	3.3933463e-07
7	0xb428bf0d	-1.5715723e-07
8	0xb59bf7e3	-1.1620544e-06
9	0x34219fbd	1.5052406e-07
10	0x351c5426	5.823698e-07
11	0x35360043	6.7800664e-07
12	0xb545118d	-7.341376e-07
13	0xb50d18f7	-5.256292e-07
14	0x3442d1a9	1.8143932e-07
15	0x34e0a13f	4.1840573e-07
16	0xb585ed7e	-9.978392e-07
17	0xb314ba6b	-3.462848e-08
18	0xb5530290	-7.8607354e-07
19	0x3584c929	9.893312e-07
20	0xb6765133	-3.670412e-06
21	0xb5484ccc	-7.461756e-07
22	0xb6318c86	-2.645685e-06
23	0xb6aa0a90	-5.0676244e-06
24	0xb59a58e9	-1.149977e-06
25	0xb61738dc	-2.253385e-06
26	0x36800f81	3.816502e-06
27	0x34d45453	3.954943e-07
28	0xb6a57bc0	-4.9317896e-06
29	0x36245ae9	2.449082e-06
30	0x35b00c18	1.3116542e-06
31	0x36867986	4.0076584e-06
32	0xb602a4e2	-1.9467484e-06
33	0xb64254fc	-2.895772e-06
34	0x35a03a15	1.1937833e-06
35	0x35652781	8.5366634e-07
36	0xb68b0aeb	-4.143794e-06
37	0x35b47d81	1.3447572e-06
38	0xb6a8df8c	-5.0328144e-06
39	0x36a960f3	5.047879e-06
40	0x37124119	8.717435e-06
41	0xb59bce4a	-1.1608438e-06
42	0x36805cd7	3.8255052e-06
43	0x3705b024	7.968429e-06
44	0xb68df096	-4.2301353e-06
45	0x35e067b4	1.6719482e-06
46	0xb6c0cdee	-5.7460193e-06
47	0xb612a1c4	-2.1849855e-06
48	0x37167413	8.967722e-06
49	0x354c1178	7.602134e-07
50	0xb684af01	-3.9542797e-06
51	0xb6c92a31	-5.9951785e-06
52	0x36ca6139	6.0313873e-06
53	0x364f9bc1	3.0936064e-06
54	0xb6442289	-2.9226378e-06
55	0xb59e2578	-1.1782822e-06
56	0x370af6a0	8.282863e-06
57	0x366038c0	3.3411634e-06
58	0x36fb26a8	7.484883e-06
59	0xb707ed7d	-8.101922e-06
60	0xb690f56d	-4.3201057e-06
61	0xb443839d	-1.8208671e-07
62	0xb5e1c93f	-1.6822377e-06
63	0xb68cd30f	-4.1968956e-06
64	0x3603a22f	1.9614924e-06
65	0xb54bc683	-7.5912266e-07
66	0x363b2234	2.788508e-06
67	0x34ee6084	4.440118e-07
68	0xb6a7728b	-4.9903224e-06
69	0xb3f907a6	-1.1596357e-07
70	0x3612f29d	2.1896915e-06
71	0x365a173f	3.2498062e-06
72	0xb65bc064	-3.274553e-06
73	0xb60f2945	-2.1332683e-06
74	0x35b9f01e	1.3853457e-06
75	0x3557b494	8.035652e-07
76	0xb69b535d	-4.6290647e-06
77	0xb5a4980f	-1.2263207e-06
78	0xb682258d	-3.8786734e-06
79	0x368d4185	4.209755e-06
80	0x36a6e0f9	4.973376e-06
81	0xb2ad1aaa	-2.0151976e-08
82	0x360de8a2	2.1146047e-06
83	0x368b5c4b	4.153267e-06
84	0xb5daf2bd	-1.6312912e-06
85	0x363c28c3	2.803791e-06
86	0xb695bfc8	-4.4628723e-06
87	0x32e229d5	2.6328886e-08
88	0x36ae71a6	5.1988345e-06
89	0x350a27fa	5.146718e-07
90	0xb5a71552	-1.2448675e-06
91	0xb6617542	-3.3595866e-06
92	0x36281aff	2.5049665e-06
93	0x364e103d	3.0705844e-06
94	0xb6153534	-2.2233698e-06
95	0x358b4bc0	1.0378353e-06
96	0x36b069da	5.2575315e-06
97	0x3617a0d7	2.2594375e-06
98	0x366358fb	3.387743e-06
99	0xb67e2605	-3.787108e-06
100	0xb6ca22e2	-6.02413e-06
101	0x3542749c	7.244032e-07
102	0xb64e5205	-3.0744134e-06
103	0xb6c60a46	-5.902056e-06
104	0x36110eae	2.1615228e-06
105	0xb5da9c7c	-1.6287809e-06
106	0x368f746e	4.2752863e-06
107	0x35e78496	1.7249429e-06
108	0xb6d8bf19	-6.4595483e-06
109	0x34562bbc	1.9946214e-07
110	0x3624fbf0	2.4584551e-06
111	0x3697776e	4.514054e-06
112	0xb683ae04	-3.9243623e-06
113	0xb616a28a	-2.2446352e-06
114	0x36020193	1.9372426e-06
115	0x353082d1	6.575547e-07
116	0xb6c895f6	-5.9779222e-06
117	0xb5cf12e3	-1.5428199e-06
118	0xb6b81785	-5.4863654e-06
119	0x36b70420	5.454305e-06
120	0x3717a4a0	9.038631e-06
121	0x352cb8c6	6.4343874e-07
122	0x36ac05f0	5.1266907e-06
123	0x3712b83f	8.745176e-06
124	0xb4a1fcf9	-3.017265e-07
125	0x36ca770a	6.033927e-06
126	0xb712f116	-8.75841e-06
127	0x32614794	1.3112999e-08
128	0x3726f0c2	9.950427e-06
129	0xb557f77d	-8.0453884e-07
130	0xb58f3f5e	-1.0672773e-06
131	0xb6ee742c	-7.106477e-06
132	0x3650274f	3.1017296e-06
133	0x36d81514	6.4397555e-06
134	0xb6881713	-4.055802e-06
135	0x362a01b7	2.5332972e-06
136	0x37262c89	9.90474e-06
137	0x360b1646	2.072558e-06
138	0x36f17c10	7.1968025e-06
139	0xb6e076d5	-6.689554e-06
140	0xb594f76c	-1.1098869e-06
141	0x360a9186	2.0648308e-06
142	0x35523780	7.831186e-07
143	0xb5958af1	-1.1141802e-06
144	0x36b5f1ce	5.42237e-06
145	0x36e38f8f	6.7818396e-06
146	0xb6675734	-3.4472441e-06
147	0x368807ae	4.05401e-06
148	0xb5b42386	-1.3421384e-06
149	0xb503151f	-4.883204e-07
150	0x36c36a75	5.823846e-06
151	0x34d40dca	3.949811e-07
152	0xb6d1f414	-6.2571e-06
153	0x3698d701	4.5549828e-06
154	0xb6006a36	-1.913531e-06
155	0x36f1f434	7.2107887e-06
156	0xb4ddb005	-4.129253e-07
157	0xb486128d	-2.4972942e-07
158	0xb62a3aa7	-2.5366114e-06
159	0x368f859e	4.277287e-06
160	0x36e159b4	6.7159654e-06
161	0x35ba5bcc	1.3884796e-06
162	0x368d63c4	4.2137417e-06
163	0x36d759d3	6.4179562e-06
164	0x35f10ecd	1.7960207e-06
165	0x36da47d6	6.505269e-06
166	0xb70468e0	-7.892231e-06
167	0x35b25a2c	1.3288277e-06
168	0x36f5f8ef	7.3305487e-06
169	0xb59739af	-1.1267165e-06
170	0x3503a31f	4.9038675e-07
171	0xb6b79284	-5.4708817e-06
172	0x356d8ddb	8.8495807e-07
173	0x36c9837a	6.0055727e-06
174	0xb664adda	-3.4075842e-06
175	0x36871587	4.0258196e-06
176	0x3707300f	8.057817e-06
177	0x35bc73cc	1.4040793e-06
178	0x36a0df90	4.7943977e-06
179	0xb696510f	-4.479785e-06
180	0xb717603b	-9.022707e-06
181	0x3606b959	2.0075443e-06
182	0xb687f7f1	-4.0521777e-06
183	0xb716b41e	-8.9826335e-06
184	0x36a9a9a5	5.0563417e-06
185	0x360c5f14	2.0916968e-06
186	0x3643cee7	2.9177697e-06
187	0x36aa38c4	5.073003e-06
188	0xb71f885f	-9.50889e-06
189	0x35696baf	8.6955964e-07
190	0x36cf794a	6.1832006e-06
191	0x36d8acf2	6.457435e-06
192	0xb708c055	-8.1510125e-06
193	0xb4f834a2	-4.6231895e-07
194	0x35ad4043	1.2908207e-06
195	0x36a7ea85	5.0042895e-06
196	0xb6fba8a1	-7.500014e-06
197	0xb5b498de	-1.3455535e-06
198	0xb71ddb3e	-9.4089755e-06
199	0x3723e11c	9.7679695e-06
200	0x353b4d22	6.977517e-07
201	0xb6299840	-2.5271584e-06
202	0xb55f4d0a	-8.318608e-07
203	0x3546df4c	7.408569e-07
204	0xb6b6c05c	-5.4464163e-06
205	0xb6e01127	-6.677717e-06
206	0x368b2627	4.1469643e-06
207	0xb68d92cc	-4.219217e-06
208	0x3514992c	5.535719e-07
209	0x35625f55	8.4330287e-07
210	0xb6a9ea79	-5.0638887e-06
211	0x33a498a4	7.66461e-08
212	0x36b5597d	5.404638e-06
213	0xb6a535b3	-4.9236346e-06
214	0x35ff54b4	1.9023632e-06
215	0xb6d958dc	-6.4774486e-06
216	0xb55530ca	-7.941968e-07
217	0x350865ac	5.08119e-07
218	0x36125b3f	2.1808808e-06
219	0xb65aea68	-3.2620974e-06
220	0x37824c7a	1.553282e-05
221	0x359a5a38	1.1500151e-06
222	0x36f3d33a	7.2665543e-06
223	0x378260fc	1.554237e-05
224	0xb68f6e75	-4.274591e-06
225	0x36a2d095	4.8522584e-06
226	0xb7433122	-1.1634345e-05
227	0xb5afadab	-1.308906e-06
228	0x379a8586	1.8420407e-05
229	0xb5ad495b	-1.2910854e-06
230	0xb6d5e65c	-6.374712e-06
231	0xb750cabb	-1.2444968e-05
232	0x3727aad3	9.993749e-06
233	0x37124434	8.718158e-06
234	0xb6b48358	-5.3797085e-06
235	0xb5a37936	-1.2179723e-06
236	0x3790f989	1.7282337e-05
237	0x36545d0a	3.1644618e-06
238	0x37695d36	1.3909585e-05
239	0xb77b918d	-1.49946545e-05
240	0xb6170520	-2.2503737e-06
241	0x35bc715c	1.4040083e-06
242	0xb585376e	-9.925404e-07
243	0xb62c18b6	-2.564438e-06
244	0x3633ef4f	2.6812374e-06
245	0x36700eec	3.5771473e-06
246	0xb5ae2d2b	-1.2977156e-06
247	0x36504d4d	3.103941e-06
248	0xb6392d9c	-2.7593696e-06
249	0x35013793	4.8137116e-07
250	0x36664dd7	3.431798e-06
251	0x35e8514b	1.7309006e-06
252	0xb683c401	-3.926922e-06
253	0x361f7c0d	2.3765053e-06
254	0xb54c4867	-7.610128e-07
255	0x367d0e14	3.7708132e-06

exp_avg_sq f4 [20, 20]
0	0x30d5bcec	1.5551485e-09
1	0x2e015105	2.9403164e-11
2	0x300e5c0b	5.17901e-10
3	0x30f5dcbc	1.7888833e-09
4	0x2ea6eede	7.5912374e-11
5	0x2f40c6ce	1.7532928e-10
6	0x306f822e	8.713269e-10
7	0x2f904880	2.6244962e-10
8	0x3111c3c8	2.1211566e-09
9	0x2f590e47	1.9741107e-10
10	0x2ff16ec8	4.391636e-10
11	0x3096aac4	1.0962471e-09
12	0x306c1e3e	8.5899277e-10
13	0x2f88880b	2.483492e-10
14	0x2effe83d	1.1637311e-10
15	0x2fa69fac	3.0308678e-10
16	0x30ee2ff1	1.7330405e-09
17	0x2ef28be5	1.1029736e-10
18	0x30f91da5	1.812556e-09
19	0x3106cae0	1.9614887e-09
20	0x32a3d7c2	1.9073813e-08
21	0x302d2cbb	6.30006e-10
22	0x3208dbad	7.96619e-09
23	0x330d84d8	3.294994e-08
24	0x30880d04	9.899002e-10
25	0x31451348	2.8678233e-09
26	0x31e57fcc	6.679306e-09
27	0x31bcd9ce	5.4962817e-09
28	0x332312f2	3.7968626e-08
29	0x32641586	1.32762406e-08
30	0x324b0b3a	1.1818708e-08
31	0x32b2cc0e	2.081472e-08
32	0x3293c5f4	1.7203071e-08
33	0x30bcdc80	1.374147e-09
34	0x3003c424	4.7936255e-10
35	0x3277987b	1.4411962e-08
36	0x32d93a6d	2.5288694e-08
37	0x32214ea8	9.389318e-09
38	0x331a5392	3.5931926e-08
39	0x33259346	3.8551e-08
40	0x32416c5f	1.1258719e-08
41	0x2faf1423	3.1846623e-10
42	0x318b84b0	4.0605173e-09
43	0x324a46d5	1.1774053e-08
44	0x3013f2d2	5.3823357e-10
45	0x30da30f6	1.5875503e-09
46	0x3200e9f6	7.503777e-09
47	0x30fdd8bb	1.8469771e-09
48	0x326c3393	1.3748735e-08
49	0x308007eb	9.315476e-10
50	0x310efdfa	2.0808089e-09
51	0x31f91ab7	7.249891e-09
52	0x31a52c1d	4.807147e-09
53	0x30f76d0b	1.8002607e-09
54	0x30858cda	9.717056e-10
55	0x305ee9e0	8.1095486e-10
56	0x3252218b	1.2231236e-08
57	0x2fe1b45d	4.1055417e-10
58	0x324563d3	1.1489607e-08
59	0x32545313	1.2358913e-08
60	0x3113a6fb	2.1486233e-09
61	0x2e585579	4.918863e-11
62	0x30312aa7	6.445284e-10
63	0x312d8a81	2.5253544e-09
64	0x2ef3d95c	1.10889714e-10
65	0x2fd85192	3.934813e-10
66	0x30c8a013	1.4597411e-09
67	0x2f55d96f	1.9449485e-10
68	0x31620056	3.288752e-09
69	0x2fa9e5d2	3.0904218e-10
70	0x30167b0f	5.474456e-10
71	0x30dcf009	1.6075329e-09
72	0x30952118	1.0850583e-09
73	0x303ae5b5	6.799284e-10
74	0x2f80b697	2.3412802e-10
75	0x2fe0e1e2	4.0905862e-10
76	0x313ecbfc	2.776459e-09
77	0x2f6afa17	2.1371026e-10
78	0x31278fc3	2.4383418e-09
79	0x313dd701	2.7625335e-09
80	0x31892417	3.9913277e-09
81	0x2e8a106c	6.2784306e-11
82	0x30d3833f	1.5389573e-09
83	0x3188252e	3.962348e-09
84	0x2ef41f97	1.1101447e-10
85	0x30dda82f	1.6127667e-09
86	0x3180daa8	3.7501486e-09
87	0x2f9bfd1f	2.837419e-10
88	0x31a70e35	4.861955e-09
89	0x2f8713fa	2.457055e-10
90	0x2f7205aa	2.2011784e-10
91	0x312be47d	2.5013656e-09
92	0x306f06da	8.695743e-10
93	0x30bc7464	1.371188e-09
94	0x3035c015	6.612038e-10
95	0x2f93fa3c	2.6916946e-10
96	0x31a515a9	4.8045945e-09
97	0x2fab3fb1	3.1149974e-10
98	0x3169195b	3.3920375e-09
99	0x31677221	3.36798e-09
100	0x3148e01d	2.9231224e-09
101	0x2e8122f4	5.87245e-11
102	0x30876875	9.852231e-10
103	0x3168aaf7	3.3857626e-09
104	0x2f21dabe	1.4720578e-10
105	0x2fdca1c6	4.0132714e-10
106	0x30ecf553	1.7240985e-09
107	0x2ffe9f3e	4.631548e-10
108	0x318ba060	4.063665e-09
109	0x2fe73923	4.2059253e-10
110	0x305bfd17	8.00314e-10
111	0x310fd007	2.0927489e-09
112	0x30d71bde	1.5651229e-09
113	0x30126808	5.326233e-10
114	0x2f823cd4	2.3690083e-10
115	0x30202cb0	5.8271166e-10
116	0x3165e443	3.3453638e-09
117	0x2f88d5ab	2.4890076e-10
118	0x3169c15e	3.401588e-09
119	0x317d79ab	3.6885506e-09
120	0x3326cab8	3.883426e-08
121	0x3022b455	5.9191524e-10
122	0x3264aa0d	1.3310012e-08
123	0x333d8398	4.4124675e-08
124	0x30d5a8a2	1.5545718e-09
125	0x31d63b5a	6.234967e-09
126	0x32dc18c2	2.562263e-08
127	0x31a3ba68	4.7651163e-09
128	0x33656c99	5.3416986e-08
129	0x31a1ef9a	4.7129562e-09
130	0x320fc83a	8.369222e-09
131	0x32eb1e5b	2.7371405e-08
132	0x32996ff3	1.7862453e-08
133	0x320f770c	8.350764e-09
134	0x317a7251	3.644477e-09
135	0x31b1033e	5.1517466e-09
136	0x3344089b	4.5642633e-08
137	0x313a72e8	2.713188e-09
138	0x33394b66	4.3142244e-08
139	0x3345658e	4.596e-08
140	0x33ce6c20	9.61229e-08
141	0x30e781e5	1.684438e-09
142	0x3312a066	3.4139156e-08
143	0x33e4712b	1.06376625e-07
144	0x317fdfda	3.7234629e-09
145	0x3270923b	1.4003088e-08
146	0x3372604f	5.6432608e-08
147	0x32779c03	1.4412765e-08
148	0x34033aa3	1.2221658e-07
149	0x32270bbd	9.723348e-09
150	0x32a499e9	1.9162103e-08
151	0x338a42fb	6.4383094e-08
152	0x33332611	4.1711306e-08
153	0x3286a267	1.5673505e-08
154	0x320b8e7c	8.123262e-09
155	0x323ded41	1.1055193e-08
156	0x33d7e57f	1.0053463e-07
157	0x31a6c9ad	4.8541637e-09
158	0x33df1e45	1.0389753e-07
159	0x33e0229f	1.04371104e-07
160	0x33309e1f	4.1122004e-08
161	0x301eadbe	5.772697e-10
162	0x328a9d5b	1.6136871e-08
163	0x333c9161	4.3904382e-08
164	0x30762543	8.954723e-10
165	0x3251a3a7	1.2202611e-08
166	0x331e401d	3.6845552e-08
167	0x3180a5de	3.744147e-09
168	0x3368889a	5.4140948e-08
169	0x3188b999	3.979221e-09
170	0x318f92de	4.1785446e-09
171	0x32f12769	2.8074014e-08
172	0x32550f81	1.2401757e-08
173	0x32486de4	1.1666518e-08
174	0x31b56cef	5.2801776e-09
175	0x30ff1135	1.8558582e-09
176	0x335fd8ba	5.2118345e-08
177	0x3117abc2	2.2071025e-09
178	0x332ad45e	3.9774356e-08
179	0x33316456	4.130228e-08
180	0x32dcbcee	2.5697286e-08
181	0x30282aaf	6.11787e-10
182	0x3227aac7	9.75951e-09
183	0x3301f31b	3.0256256e-08
184	0x307f2bb2	9.2830554e-10
185	0x31099f43	2.0026654e-09
186	0x326d71c1	1.382108e-08
187	0x31bc2dc3	5.4767226e-09
188	0x331143bc	3.3822047e-08
189	0x3180122e	3.727357e-09
190	0x31e3e549	6.632636e-09
191	0x329c2ce4	1.8181204e-08
192	0x3266fb13	1.344485e-08
193	0x3129939a	2.4676639e-09
194	0x30b60d51	1.3246028e-09
195	0x3184d346	3.8657246e-09
196	0x32ea9935	2.7310856e-08
197	0x308ccd13	1.0244626e-09
198	0x3306db8d	3.1398987e-08
199	0x330a7202	3.223432e-08
200	0x33df37ff	1.0394432e-07
201	0x30f20cb0	1.7611423e-09
202	0x331f6bc1	3.7118074e-08
203	0x340142d0	1.2038367e-07
204	0x3183d93c	3.8372985e-09
205	0x325239f6	1.2236788e-08
206	0x3383e843	6.142411e-08
207	0x328d7919	1.646963e-08
208	0x34178b04	1.4113544e-07
209	0x32689bfb	1.3539643e-08
210	0x32d64db7	2.494822e-08
211	0x339e8922	7.382393e-08
212	0x335d0f7f	5.1469666e-08
213	0x3289042d	1.5950798e-08
214	0x3202fc40	7.624351e-09
215	0x327f29b7	1.4852438e-08
216	0x33fba137	1.1717423e-07
217	0x31cd6714	5.978004e-09
218	0x3400b674	1.1987305e-07
219	0x34069525	1.2533981e-07
220	0x3346c176	4.627642e-08
221	0x30847d9c	9.639964e-10
222	0x3282af1b	1.521362e-08
223	0x3372ddc3	5.6546707e-08
224	0x311006ba	2.0958582e-09
225	0x31f1bcb1	7.035475e-09
226	0x3302edc9	3.0484248e-08
227	0x31bf7d9e	5.5731126e-09
228	0x33989abc	7.1061976e-08
229	0x32120665	8.499772e-09
230	0x3263d119	1.3260682e-08
231	0x3319dda1	3.582466e-08
232	0x32dab810	2.5462242e-08
233	0x3244fdbd	1.1466395e-08
234	0x318d4225	4.11116e-09
235	0x322f0f9d	1.0189891e-08
236	0x3380a1bd	5.9898845e-08
237	0x31b0d2fb	5.14626e-09
238	0x3373006a	5.6578223e-08
239	0x3388b21f	6.3653935e-08
240	0x3315c777	3.4873178e-08
241	0x308faa9b	1.0453108e-09
242	0x3256c7a2	1.2501831e-08
243	0x3337ac99	4.2764984e-08
244	0x3106abbc	1.9597186e-09
245	0x310dd141	2.0637148e-09
246	0x325df63c	1.291988e-08
247	0x322d2da0	1.0080299e-08
248	0x33494d58	4.6869303e-08
249	0x31d573c3	6.2122765e-09
250	0x3266f6c0	1.34438665e-08
251	0x32db254d	2.5511918e-08
252	0x32cc252e	2.3765633e-08
253	0x30ddfb28	1.6151249e-09
254	0x309d8f3c	1.1463963e-09
255	0x323526c9	1.0544405e-08

exp_avg f4 [20]
0	0x35ae76b6	1.299856e-06
1	0x36c46e54	5.854099e-06
2	0xb72cb010	-1.0292992e-05
3	0x36c258c4	5.791984e-06
4	0xb6c5c3d0	-5.893853e-06
5	0x36f4e114	7.297969e-06
6	0xb73bcce6	-1.1193775e-05
7	0x35db3820	1.6333106e-06
8	0xb70a0f15	-8.2289525e-06
9	0x3730f0aa	1.0546451e-05
10	0xb5325469	-6.6433e-07
11	0xb7b07933	-2.1037273e-05
12	0x3634ada4	2.6923162e-06
13	0xb6cdde3f	-6.135349e-06
14	0x3712c622	8.7484095e-06
15	0xb626dbe3	-2.4863918e-06
16	0x3766b0fe	1.37502775e-05
17	0xb75a79e4	-1.3022192e-05
18	0x35331160	6.670798e-07
19	0xb73af34b	-1.114311e-05

exp_avg_sq f4 [20]
0	0x312cfd70	2.5173357e-09
1	0x33346478	4.200089e-08
2	0x32897695	1.6002824e-08
3	0x3188a035	3.9763344e-09
4	0x31bc592f	5.481659e-09
5	0x31a4a2c6	4.7915334e-09
6	0x338630ae	6.248716e-08
7	0x3418847b	1.4204299e-07
8	0x33828d12	6.079257e-08
9	0x33247835	3.8293553e-08
10	0x342f2ff4	1.631559e-07
11	0x33b4ba95	8.415842e-08
12	0x336b4dbf	5.478591e-08
13	0x326bb481	1.3719842e-08
14	0x32df254a	2.5977574e-08
15	0x335c683a	5.1317535e-08
16	0x33211cbf	3.7511878e-08
17	0x3503aae1	4.9049964e-07
18	0x33dc1202	1.0247824e-07
19	0x329f77bb	1.8564483e-08

exp_avg f4 [3, 20]
0	0xb6ccabbd	-6.0996667e-06
1	0x3799c07e	1.8328657e-05
2	0x37611e8a	1.34181555e-05
3	0x37934649	1.7556495e-05
4	0xb800e2e0	-3.0728872e-05
5	0xb6a2e387	-4.854464e-06
6	0x374e29ea	1.2288316e-05
7	0x379b7656	1.8532544e-05
8	0xb7fd6c29	-3.0210316e-05
9	0xb717df7f	-9.052338e-06
10	0x359d3549	1.171292e-06
11	0x37564bd1	1.2773046e-05
12	0xb7145310	-8.840827e-06
13	0xb7853e31	-1.5883796e-05
14	0x36d55b29	6.358507e-06
15	0x372f5d42	1.0452526e-05
16	0x370b4672	8.301447e-06
17	0x351ce590	5.8448586e-07
18	0x379cd67c	1.8696526e-05
19	0x371b1365	9.243236e-06
20	0xb637b597	-2.7374824e-06
21	0x372d0f92	1.0315229e-05
22	0xb5e9c9b4	-1.7418556e-06
23	0x370b1827	8.290669e-06
24	0xb6b86fde	-5.4966504e-06
25	0xb5f4bec7	-1.823494e-06
26	0x365511d7	3.1749857e-06
27	0x36d7971c	6.4250908e-06
28	0xb690c294	-4.3141863e-06
29	0x3154c228	3.0960425e-09
30	0x3460b619	2.0927872e-07
31	0x36d63924	6.384349e-06
32	0xb6e9b38b	-6.9648427e-06
33	0xb683f657	-3.932782e-06
34	0x3712b74e	8.744957e-06
35	0x35b237d1	1.3278278e-06
36	0xb25859df	-1.2593289e-08
37	0x3537e36e	6.8503766e-07
38	0x368bac54	4.1625844e-06
39	0x367dc8e0	3.7816862e-06
40	0xb78e2dd7	-1.6949065e-05
41	0x382dd374	4.1443345e-05
42	0x358babe1	1.040633e-06
43	0x3803cebe	3.1425378e-05
44	0xb7aa6751	-2.031369e-05
45	0xb6bb7704	-5.5868895e-06
46	0x371591c2	8.915029e-06
47	0x3800e318	3.0729076e-05
48	0xb76f9a4d	-1.4281436e-05
49	0x374c9678	1.2194381e-05
50	0xb4f7750d	-4.60925e-07
51	0x37c7eb6e	2.383228e-05
52	0xb80e59e0	-3.393914e-05
53	0xb790590a	-1.72076e-05
54	0x3802de94	3.1201707e-05
55	0x3695f59f	4.46914e-06
56	0x379c18ac	1.8608138e-05
57	0x37560360	1.275618e-05
58	0x36e9cce4	6.9677935e-06
59	0x37b14734	2.11332e-05

exp_avg_sq f4 [3, 20]
0	0x33fb1628	1.16921285e-07
1	0x3533f12b	6.703364e-07
2	0x337de714	5.9116317e-08
3	0x350e9322	5.311323e-07
4	0x34d861ff	4.0304437e-07
5	0x31bcca01	5.4944853e-09
6	0x33b61791	8.479322e-08
7	0x34ed7162	4.4227187e-07
8	0x34750f3e	2.2822948e-07
9	0x3330d771	4.1174136e-08
10	0x30d8d258	1.5775852e-09
11	0x347fa28d	2.3807861e-07
12	0x34e66626	4.291516e-07
13	0x34ceb198	3.8499707e-07
14	0x34b80452	3.4275814e-07
15	0x339fbe73	7.438657e-08
16	0x34321065	1.6583506e-07
17	0x331496aa	3.4595963e-08
18	0x342dc2d8	1.6182764e-07
19	0x348c5813	2.6141115e-07
20	0x31eea8c8	6.9459e-09
21	0x3322db19	3.7917832e-08
22	0x31cf8966	6.0401133e-09
23	0x32ffa101	2.9759123e-08
24	0x32f5d411	2.861819e-08
25	0x2f913bb4	2.6417768e-10
26	0x31b6048c	5.297414e-09
27	0x32e5119e	2.666712e-08
28	0x32951bec	1.735858e-08
29	0x31823a1b	3.790104e-09
30	0x2f075b70	1.2310664e-10
31	0x32565f3f	1.2478096e-08
32	0x32d1ef75	2.4439695e-08
33	0x32d3102d	2.4570989e-08
34	0x32992f93	1.7833178e-08
35	0x31bf9d9d	5.57675e-09
36	0x325420c2	1.2347472e-08
37	0x3123e7f7	2.3851479e-09
38	0x323f01a6	1.1118038e-08
39	0x3287128d	1.5724504e-08
40	0x335e6914	5.178397e-08
41	0x349d9cd3	2.9357633e-07
42	0x3327b187	3.9044178e-08
43	0x34717058	2.2485744e-07
44	0x3448fe21	1.8718903e-07
45	0x3123c667	2.38324e-09
46	0x331e7309	3.6891866e-08
47	0x345253ec	1.9588305e-07
48	0x33ebdc03	1.098306e-07
49	0x33016cda	3.0134153e-08
50	0x307bb92c	9.1576413e-10
51	0x33d2b2a9	9.811385e-08
52	0x344cdb29	1.907871e-07
53	0x34372298	1.7055788e-07
54	0x3426fb93	1.5551477e-07
55	0x331ce8c3	3.6533276e-08
56	0x33b2cd0f	8.326071e-08
57	0x329933d6	1.7835116e-08
58	0x33a0051c	7.45151e-08
59	0x33f6f16d	1.1499183e-07

exp_avg f4 [3]
0	0xb7c46cd9	-2.3415707e-05
1	0xb73c3c46	-1.1219707e-05
2	0xb85470ce	-5.0649796e-05

exp_avg_sq f4 [3]
0	0x359007f1	1.0731147e-06
1	0x3386a210	6.26934e-08
2	0x34fc2bb7	4.6970464e-07
